khmernlp/tokenize/modules/jaws/output/best_weights.pt (torch, 102794 bytes, 16 tensors)

layers.0.att_src f4 [1, 1, 72]
0.507959 -0.15300137 -0.28338674 0.056772847 0.18879838 -0.70777357 0.4572022 -0.15165545
-0.7253048 -0.178964 0.5478224 -0.45182484 -0.22950122 -0.44533852 -0.6049786 -0.13635945
-0.5206693 -0.2336689 -0.62567204 -0.647814 -0.56332016 -0.82373595 0.3619685 -0.51248556
-0.12113981 0.004949597 -0.46118566 0.714003 0.12716001 -0.45592 -0.13398464 -0.18311799
-0.1317651 -0.05135181 0.0069833095 -0.4307895 -0.527358 0.4523915 0.07850066 -0.34547484
-0.22429098 0.12349348 -0.31730253 -0.311544 -0.28920278 -0.062054113 -0.35008758 -0.41625455
0.5917612 0.5768949 -0.1855811 -0.31377935 0.17255595 -0.5442162 -0.6893751 -0.15561914
0.17700751 -0.47036734 -0.21552023 -0.45539635 -0.7381924 0.34575504 -0.3898839 -0.031258784
-0.5034604 0.39938506 -0.31703308 -0.243903 -0.6425049 0.60656315 -0.503983 -0.6279285
00000000: 9a09 023f 64ac 1cbe 1118 91be a58a 683d
00000010: 5d54 413e a630 35bf 6816 ea3e 914b 1bbe
00000020: 93ad 39bf 5742 37be 173e 0c3f 9655 e7be
00000030: 5e02 6bbe 6903 e4be e1df 1abf d0a1 0bbe
00000040: 954a 05bf e646 6fbe 0b2c 20bf 23d7 25bf
00000050: c035 10bf 5ce0 52bf ef53 b93e 4132 03bf
00000060: 2618 f8bd 3b30 a23b 8720 ecbe e7c8 363f
00000070: 3c36 023e 596e e9be 4533 09be 4883 3bbe
00000080: 6eed 06be 4756 52bd 3fd4 e43b 7190 dcbe
00000090: ef00 07bf dc9f e73e f4c4 a03d 14e2 b0be
000000a0: 89ac 65be 26ea fc3d 7a75 a2be b282 9fbe
000000b0: 6312 94be 742c 7ebd ae3e b3be 511f d5be
000000c0: a97d 173f 62af 133f f908 3ebe b0a7 a0be
000000d0: 82b2 303e c151 0bbf e37a 30bf a05a 1fbe
000000e0: 7541 353e fdd3 f0be 56b1 5cbe b629 e9be
000000f0: 2dfa 3cbf ce06 b13e dd9e c7be 3609 00bd
00000100: c8e2 00bf 337c cc3e 2952 a2be b5c1 79be
00000110: 337b 24bf b947 1b3f 0805 01bf ecbf 20bf

layers.0.att_dst f4 [1, 1, 72]
-0.48053107 0.0668587 -0.17943898 -0.62864786 -0.5806097 0.2690508 -0.81040096 -0.14908744
-0.4470504 -0.14898102 -0.5935133 0.3362737 0.24463412 0.00064341736 0.12710752 -0.59902483
0.6267854 -1.3570207 -0.23491186 0.4604118 -0.35266158 0.5173558 -0.47787777 -0.39317444
0.47019988 0.42019093 0.3997608 0.024861585 0.1908548 -0.5470642 0.119410925 -0.5505559
-0.21179153 -0.9538827 0.1935457 0.39181808 -0.43393338 -0.32734653 -1.1983798 0.40000513
0.1053702 0.1981276 -0.03561259 0.12175475 0.6150067 -0.67627233 0.095069915 -0.3413576
-0.20164993 0.19096147 -0.7084902 0.44409677 -0.91358125 0.077915505 0.482543 0.2656714
-0.098202884 -0.3684497 0.5627346 0.45645782 0.23346935 -0.1071844 -0.06733181 0.026186554
-0.036039587 -0.8347864 -0.3674567 -0.18422948 0.5678078 0.22099264 -0.101799525 -0.178386
00000000: 2b08 f6be 37ed 883d dabe 37be 11ef 20bf
00000010: d6a2 14bf 07c1 893e 7076 4fbf 61aa 18be
00000020: cae3 e4be 7b8e 18be 7df0 17bf 112c ac3e
00000030: 5e81 7a3e 02ab 283a 7928 023e b159 19bf
00000040: 0275 203f dbb2 adbf bc8c 70be 18bb eb3e
00000050: 0f90 b4be 6e71 043f 65ac f4be 294e c9be
00000060: 0abe f03e 4423 d73e 73ad cc3e 86aa cb3c
00000070: 716f 433e 660c 0cbf b78d f43d 3bf1 0cbf
00000080: e1df 58be a831 74bf d830 463e 619c c83e
00000090: 842c debe f799 a7be 8264 99bf 79cd cc3e
000000a0: 55cc d73d f6e1 4a3e 82de 11bd 8e5a f93d
000000b0: 1471 1d3f 2f20 2dbf 04b4 c23d 6cc6 aebe
000000c0: 527d 4ebe 678b 433e 9d5f 35bf a760 e33e
000000d0: 76e0 69bf 2a92 9f3d e00f f73e 1506 883e
000000e0: 981e c9bd 70a5 bcbe 600f 103f d7b4 e93e
000000f0: 9712 6f3e 7f83 dbbd 43e5 89bd 2f85 d63c
00000100: 3f9e 13bd 90b4 55bf 4923 bcbe a7a6 3cbe
00000110: da5b 113f e54b 623e 457c d0bd d2aa 36be

layers.0.bias f4 [72]
-0.07465871 0.21503954 -0.08496284 -0.08281056 0.24606152 0.23820409 -0.21089955 0.23213899
-0.033145506 -0.077726625 -0.07888605 0.3456871 0.24344072 0.34317172 0.33206454 -0.12032237
0.2154151 0.06963948 -0.18576466 0.23069647 -0.081724696 0.26839095 -0.02503327 0.04491279
0.18272267 0.20977661 0.24106035 0.22663555 0.15907255 0.49230886 0.21599506 0.26435345
0.22233017 -0.096447 0.2611784 0.22082217 -0.0703618 0.020980326 -0.15456384 0.079331785
0.24368758 0.31003654 -0.09663145 0.31383872 0.3778586 -0.11260798 0.20808806 0.45128933
0.037996963 0.2994927 -0.13029297 0.2021977 -0.0040243757 0.54600304 0.32622954 0.28873998
0.13971746 0.35936958 0.21394508 0.22306818 0.33289754 -0.33107832 0.308071 0.2983418
0.41513896 -0.26410022 -0.061915156 -0.029557364 0.35711196 0.3802065 0.22625029 -0.090937994
00000000: aae6 98bd 5333 5c3e ff00 aebd 9598 a9bd
00000010: 8df7 7b3e c6eb 733e 0df6 57be d8b5 6d3e
00000020: 95c3 07bd 232f 9fbd 028f a1bd e6fd b03e
00000030: 8648 793e 34b4 af3e 5d04 aa3e 936b f6bd
00000040: c795 5c3e 259f 8e3d 1739 3ebe b23b 6c3e
00000050: 475f a7bd 8a6a 893e 9212 cdbc 79f6 373d
00000060: a71b 3b3e aecf 563e 86d8 763e 2613 683e
00000070: eae3 223e e80f fc3e cf2d 5d3e 5659 873e
00000080: 85aa 633e 0186 c5bd 2db9 853e 351f 623e
00000090: d919 90bd efde ab3c fc45 1ebe b478 a23d
000000a0: 3d89 793e 1cbd 9e3e b6e6 c5bd 78af a03e
000000b0: af76 c13e 039f e6bd 0915 553e 650f e73e
000000c0: b4a2 1b3d 1b57 993e 856b 05be ea0c 4f3e
000000d0: e9de 83bb dbc6 0b3f 8f07 a73e bad5 933e
000000e0: 1812 0f3e 4aff b73e 6b14 5b3e fc6b 643e
000000f0: 8c71 aa3e 1983 a9be 7bbb 9d3e 42c0 983e
00000100: 188d d43e 2538 87be bf9a 7dbd 4922 f2bc
00000110: 61d7 b63e 6daa c23e 28ae 673e b33d babd

layers.0.lin.weight f4 [72, 290]
-0.30304193 0.34167972 -0.2738085 0.21488497 -0.45359167 0.17792778 -0.12994835 -0.10977235
0.09177638 0.11991508 -0.063422695 0.225096 -0.12921001 0.15906015 -0.2639568 0.09543206
-0.015555652 0.025268503 0.1473557 -0.14023599 0.07414463 -0.32552773 -0.4213094 0.23720875
0.057737287 0.39413664 -0.093952395 -0.029459128 0.16421303 -0.19186218 -0.21582703 0.3110502
-0.005200674 0.18848221 -0.27533388 -0.2931491 0.12801385 0.16052717 0.030607019 0.30404165
0.3993721 0.4513115 -0.1377787 0.0064516366 -0.107921846 -0.2540691 -0.21986264 -0.52986765
0.48477787 0.07252589 -0.1044177 -0.41990703 -0.11345278 -0.4943143 0.009171605 0.10016307
-0.03551944 -0.15236874 0.7835661 -0.18310668 0.07653761 0.47485828 -0.07727296 0.23301944
0.23038436 -0.09769607 0.09017871 -0.11461751 -0.30669028 -0.11038398 -0.07408792 -0.28719962
-0.13905889 -0.2146091 -0.19100538 -0.33276668 -0.107675835 -0.6050166 -0.25952664 -0.40051025
-0.07785913 0.20238611 -0.3819413 0.08222416 0.35476747 0.2488806 0.5981683 0.038247082
0.22892392 0.3575536 -0.17128451 0.48288107 0.020595202 -0.35404044 -0.16952386 -0.322511
-0.29155597 -0.033500493 1.0134419 0.016028956 -0.043077067 0.0234285 -0.077338584 -0.092626795
-0.40273356 -0.20567536 0.08151526 0.14109766 0.653702 0.122081846 0.19074342 0.2621309
0.25829336 0.008083552 -0.056590922 0.03916253 -0.061932184 -0.014770225 -0.03998691 0.0020150244
0.10801016 0.06995514 0.104822025 -0.06156686 0.0014338344 0.046682864 0.10110974 -0.11703312
-0.04125601 0.0283214 -0.008902021 -0.11302011 0.054241553 0.10467963 -0.030493341 0.03069298
0.080052406 -0.021995157 0.055030853 -0.082290605 0.1184804 -0.115079716 -0.015540332 -0.008922957
0.115317285 -0.19943169 0.304273 0.09982306 0.045608435 -0.03463007 -0.14599137 -0.055417795
-0.022002831 -0.15926977 -0.049792767 -0.028408468 -0.14728685 0.10387718 0.57043797 -0.41705772
0.19250804 -0.41708815 0.37227076 -0.07838835 0.22623102 0.09565958 -0.0002447504 0.68700373
-1.0414321 -0.12505724 -0.006488038 -0.1677677 -0.024117108 -0.29363745 0.24972723 0.28313327
-0.3844702 -0.1619738 0.1262781 -0.35557267 -0.37558272 -0.31188944 0.31123984 0.18173055
0.070391715 0.3063216 0.21279989 -0.07895269 -0.07863885 0.09763117 -0.29593173 -0.05441399
-0.42769775 0.5531759 0.0152897835 0.12670119 0.15160297 0.005776909 0.05011528 -0.10815781
-0.057947725 0.35757595 0.17825425 0.6604122 0.025379112 0.40396333 0.082426496 -0.0523493
0.42519742 0.077688076 -0.014941005 0.11146535 -0.08776297 -0.5863571 -0.14625853 -0.36288956
-0.083923474 -0.6122662 -0.3384077 -0.25872633 -0.116076246 -0.04316781 0.029863741 -0.4459282
-0.43540338 -0.21461265 -0.47438207 0.011547453 -0.29155478 -0.54961413 -0.31089103 -0.21127906
-1.3445939 -0.3512087 0.36567023 -0.037673354 -0.24520558 0.085374385 -0.6081362 -0.38396856
0.07983396 1.034252 0.6855049 0.96093124 0.10061912 0.12274246 0.047292784 0.08519173
0.08969318 0.061396986 0.44292274 0.012342816 0.29914087 -0.24685611 -0.07238327 -0.25200212
00000000: 5028 9bbe a5f0 ae3e a130 8cbe ce0a 5c3e
00000010: 2b3d e8be b332 363e 2e11 05be 53d0 e0bd
00000020: 41f5 bb3d 0a96 f53d c2e3 81bd 917f 663e
00000030: a14f 04be aae0 223e 5825 87be e271 c33d
00000040: 22dd 7ebc e4ff ce3c 6ae4 163e 069a 0fbe
00000050: 24d9 973d 92ab a6be deb5 d7be dae6 723e
00000060: ef7d 6c3d 47cc c93e 1d6a c0bd 4554 f1bc
00000070: 7627 283e 8577 44be c301 5dbe f941 9f3e
00000080: 6a6a aabb 7b01 413e 90f8 8cbe a417 96be
00000090: 1016 033e 3c61 243e 92bb fa3c 59ab 9b3e
000000a0: 807a cc3e 4d12 e73e dc15 0dbe 4068 d33b
000000b0: 2106 ddbd 5815 82be ac23 61be 68a5 07bf
000000c0: ce34 f83e 7488 943d f2d8 d5bd 0efe d6be
000000d0: ee59 e8bd c416 fdbe 8044 163c 4c22 cd3d
000000e0: d57c 11bd 8d06 1cbe ca97 483f 5180 3bbe
000000f0: c0bf 9c3d a020 f33e 4941 9ebd a69c 6e3e
00000100: e1e9 6b3e e114 c8bd 9eaf b83d 96bc eabd
00000110: 8206 9dbe ff10 e2bd 68bb 97bd d40b 93be
00000120: 7465 0ebe 7dc2 5bbe ea96 43be 6560 aabe
00000130: 2685 dcbd 5ee2 1abf ade0 84be ae0f cdbe
00000140: 9c74 9fbd 4e3e 4f3e cf8d c3be 2465 a83d
00000150: 15a4 b53e 8eda 7e3e 8f21 193f f9a8 1c3d
00000160: 086b 6a3e 4411 b73e 3565 2fbe 303c f73e
00000170: 45b7 a83c ca44 b5be aa97 2dbe 2920 a5be
00000180: d346 95be d037 09bd 77b8 813f 284f 833c
00000190: 9471 30bd 20ed bf3c b163 9ebd 1eb3 bdbd
000001a0: 1833 cebe 909c 52be 79f1 a63d e87b 103e
000001b0: 0459 273f 0c06 fa3d 3e52 433e 0536 863e
000001c0: 073f 843e e070 043c e2cb 67bd e468 203d
000001d0: 9aac 7dbd d0fe 71bc 50c9 23bd 800e 043b
000001e0: 6e34 dd3d a444 8f3d eeac d63d 882d 7cbd
000001f0: 80ef bb3a 8836 3f3d a012 cf3d 0faf efbd
00000200: 10fc 28bd 4802 e83c c8d9 11bc 1677 e7bd
00000210: 642c 5e3d 4662 d63d 2ccd f9bc d86f fb3c
00000220: 84f2 a33d 302f b4bc 0868 613d fa87 a8bd
00000230: daa5 f23d eaae ebbd e09c 7ebc 9831 12bc
00000240: 782b ec3d d237 4cbe acc9 9b3e 0870 cc3d
00000250: e9cf 3a3d 43d8 0dbd c37e 15be c5fd 62bd
00000260: 483f b4bc 9d17 23be 80f3 4bbd e0b8 e8bc
00000270: 5dd2 16be 8fbd d43d 3908 123f 9788 d5be
00000280: d420 453e 948c d5be 469a be3e 128a a0bd
00000290: 1ba9 673e 2be9 c33d d851 80b9 7adf 2f3f
000002a0: a64d 85bf 010f 00be 9c99 d4bb 4ccb 2bbe
000002b0: 3e91 c5bc a657 96be 7fb8 7f3e d8f6 903e
000002c0: 47d9 c4be 76dc 25be 0c4f 013e 9f0d b6be
000002d0: 614c c0be f9af 9fbe d45a 9f3e 9317 3a3e
000002e0: 8829 903d 2fd6 9c3e 37e8 593e f3b1 a1bd
000002f0: 680d a1bd daf2 c73d 5d84 97be 34e1 5ebd
00000300: 33fb dabe f09c 0d3f 0082 7a3c f5bd 013e
00000310: cf3d 1b3e 3a4c bd3b ae45 4d3d d881 ddbd
00000320: 985a 6dbd 3214 b73e 4888 363e c610 293f
00000330: dbe7 cf3c 48d4 ce3e 39cf a83d 386c 56bd
00000340: 7ab3 d93e ed1a 9f3d 1ecb 74bc f247 e43d
00000350: 12bd b3bd 801b 16bf ccc4 15be a9cc b9be
00000360: 12e0 abbd 7abd 1cbf c643 adbe c777 84be
00000370: 62b9 edbd bbd0 30bd cea4 f43c b350 e4be
00000380: 31ed debe 6bc3 5bbe 35e2 f2be 8731 3d3c
00000390: ab46 95be 83b3 0cbf 1c2d 9fbe 8a59 58be
000003a0: a71b acbf a0d1 b3be 2139 bb3e 604f 1abd
000003b0: 2c17 7bbe c4d8 ae3d d0ae 1bbf 8797 c4be
000003c0: fd7f a33d 5f62 843f 407d 2f3f 97ff 753f
000003d0: 6611 ce3d 6660 fb3d 14b6 413d 0079 ae3d
000003e0: 0fb1 b73d 687b 7b3d c5c6 e23e 8639 4a3c
000003f0: fe28 993e d9c7 7cbe ae3d 94bd 6c06 81be

layers.1.att_src f4 [1, 1, 32]
-0.212928 -0.7995108 0.20970672 0.22254154 0.11464512 -0.22187805 0.45948285 0.28467056
-0.055323053 0.34745166 -0.05120348 0.05698497 -0.52829146 -0.32416385 -0.19085926 0.29343876
-0.06476746 0.346736 0.752701 0.116815954 -0.4165356 -0.10599476 -0.5902169 0.9317416
0.11372515 0.57822424 0.28074443 -0.64045054 -0.42822665 0.34633154 0.51549786 0.521476
00000000: cc09 5abe bdac 4cbf 5cbd 563e eee1 633e
00000010: 10cb ea3d 0034 63be 5641 eb3e 57c0 913e
00000020: 6d9a 62bd 2fe5 b13e beba 51bd 1269 693d
00000030: 1c3e 07bf cef8 a5be 9c70 43be 9b3d 963e
00000040: cda4 84bd 6287 b13e 03b1 403f 343d ef3d
00000050: 2744 d5be c813 d9bd 7418 17bf 9e86 6e3f
00000060: bbe8 e83d 8106 143f bcbd 8f3e 91f4 23bf
00000070: 8640 dbbe 5e52 b13e abf7 033f 737f 053f

layers.1.att_dst f4 [1, 1, 32]
0.9061632 -0.2894719 -0.43525353 -0.20150025 -0.084056586 -0.061617184 -0.5873362 0.11112899
-0.26821685 -0.66227216 -0.28629974 -0.15525727 -0.35946885 -0.35823888 0.10744608 0.2484506
0.15401919 0.3876103 0.061941043 -0.43388298 -0.6875016 -0.23372905 -0.3492312 -0.3677545
0.3528091 0.039028384 -0.3713448 -0.19174036 -0.0024976768 -0.015771842 0.036517147 -0.26233703
00000000: 50fa 673f a935 94be 8dd9 debe 1556 4ebe
00000010: dc25 acbd 4d62 7cbd aa5b 16bf 9997 e33d
00000020: b853 89be ab8a 29bf e195 92be c3fb 1ebe
00000030: 4d0c b8be 166b b7be b10c dc3d d669 7e3e
00000040: 35b7 1d3e db74 c63e e4b5 7d3d e925 debe
00000050: 1b00 30bf ab56 6fbe 6fce b2be 514a bcbe
00000060: 65a3 b43e 3adc 1f3d e820 bebe 9657 44be
00000070: 10b0 23bb f333 81bc 0193 153d 0a51 86be

layers.1.bias f4 [32]
0.24754335 0.12930486 0.06816281 -0.13633147 -0.13941751 -0.05540233 0.06539449 -0.03382303
0.05119286 0.03569457 -0.08188274 -0.064182475 0.14425687 0.21294409 -0.0733189 0.27243674
0.14444266 -0.15560569 0.054623187 0.078388765 -0.16987932 -0.04416638 0.027089637 -0.049727734
-0.095495075 -0.0050627533 -0.04792141 0.22388622 0.05563008 0.05460501 0.043073308 -0.13992079
00000000: 017c 7d3e 7e68 043e f198 8b3d 7a9a 0bbe
00000010: 77c3 0ebe 8eed 62bd 8ced 853d 048a 0abd
00000020: 9baf 513d 7834 123d 23b2 a7bd 1a72 83bd
00000030: 13b8 133e 040e 5a3e 3828 96bd d47c 8b3e
00000040: c7e8 133e 1957 1fbe 90bc 5f3d 4a8a a03d
00000050: d8f4 2dbe cee7 34bd 16eb dd3c 4faf 4bbd
00000060: ec92 c3bd 74e5 a5bb 3e49 44bd 6e42 653e
00000070: 5edc 633d 81a9 5f3d a36d 303d 6547 0fbe

layers.1.lin.weight f4 [32, 72]
0.50851995 -0.5655823 -0.08472822 0.19606976 -0.36086994 0.042000134 -0.26046202 -0.32985762
-0.0064885435 0.14085904 0.031785842 -0.28743523 -0.012089269 0.065822326 0.06676321 -0.18100345
0.18566205 -0.5852408 -0.28075475 -0.11615739 -0.07423078 -0.4197785 0.31912017 0.107653484
-0.11320163 0.086104505 -0.07111927 0.8894298 -0.4304475 -0.00076427404 -0.061430052 0.06941649
-0.32596904 0.08252685 -0.2535471 -0.1471145 -0.15036204 0.5617309 -0.3549541 0.16455854
0.1672027 -0.18948355 -0.07934025 -0.16749433 0.3089068 -0.05375603 -0.23155397 0.0864768
0.31807116 0.47957847 0.0021267305 -0.408985 -0.102960035 0.14932111 -0.37481865 -0.3470765
-0.5935324 -0.50581175 0.12060708 0.3388058 -0.14194077 0.2666224 -0.20831384 0.10726437
-0.4906367 -0.32002583 -0.023820478 -0.06561382 -0.34108895 0.8260644 -0.111104354 0.16930567
-0.017477348 -0.25202876 0.13097802 0.1402218 -0.051679548 -0.13078354 0.27079058 -0.019428007
-0.04574826 0.15440306 0.18205401 0.02193132 -0.18604651 -0.059015643 0.08173845 0.14986272
-0.12185776 0.22400169 -0.1817592 -0.31784698 0.13394952 -0.017642988 0.49882805 -0.2138605
0.0011220727 0.08851311 -0.1379187 0.22151554 0.07381938 -0.18963492 0.03346113 -0.14593577
-0.39385194 -0.027518056 -0.39187756 -0.28427392 0.052795473 0.5709255 -0.033571273 -0.15204076
-0.23908249 -0.21370211 0.19684511 -0.13694344 0.110441856 0.007989264 -0.13999946 -0.11763384
0.35485286 0.14892131 -0.12000406 0.059207294 0.16987792 -0.010170865 -0.27070236 -0.23931848
0.1657692 -0.011507075 -0.16596392 0.04825073 -0.19536203 0.2165606 0.0020352069 -0.013564862
-0.26641247 -0.06945805 0.22181202 0.23959377 -0.36019903 -0.030973464 -0.21519282 -0.13566965
0.28510514 0.18118207 -0.07053704 0.2960778 -0.09088781 0.21845391 -0.37978712 -0.28838176
0.0059066797 0.33843666 -0.5722466 -0.08232509 0.08662213 -0.0055020824 0.31950238 -0.121476375
0.0936411 -0.7074571 0.36645052 0.25671923 -0.04398644 -0.2142172 0.6282395 -0.4548813
0.08375032 0.07801071 0.24244647 -0.00026191806 -0.13955097 -0.41712162 0.05823074 -0.74941325
-0.08403538 0.00923027 -0.21359067 -0.019486291 0.335424 0.50275135 -0.0007408274 0.8170236
0.24409993 -0.013017799 -0.1939877 0.14757869 0.13405272 -0.37048534 0.14437537 -0.24378425
0.38314563 0.3048869 -0.17909555 -0.03914529 0.595221 0.31053293 0.2104484 0.03198193
-0.30054834 -0.038315833 0.2107878 0.114735365 0.21599495 0.14824007 -0.16629337 0.10739612
0.33215275 0.031375594 0.0744757 0.100744694 -0.1546484 0.47595826 0.020299185 -0.53882974
-0.4853257 -0.2140086 -0.013083116 0.15279822 -0.19619179 -0.19167121 0.008205389 0.07684433
-0.035273463 -0.08957809 -0.14860612 -0.20618896 0.05789473 0.12887138 -0.22620147 -0.025121858
0.1730644 -0.21267149 -0.07646933 -0.103710584 -0.11057882 0.31992272 -0.33125556 -0.080164135
0.0037285234 -0.03746359 -0.052910388 -0.36348563 0.13765506 0.17368895 -0.20297997 0.094279274
0.04191325 -0.05129931 0.009798635 0.23635887 0.119960345 -0.19058177 -0.1922483 0.29717714
00000000: 5d2e 023f 00ca 10bf fd85 adbd 83c6 483e
00000010: f2c3 b8be 5508 2c3d 475b 85be 19e3 a8be
00000020: d99d d4bb 5a3d 103e df31 023d b62a 93be
00000030: 1212 46bc dbcd 863d 26bb 883d f858 39be
00000040: 311e 3e3e 57d2 15bf 16bf 8fbe ede3 edbd
00000050: 4f06 98bd 35ed d6be b863 a33e 6e79 dc3d
00000060: 42d6 e7bd 8f57 b03d fba6 91bd acb1 633f
00000070: 9d63 dcbe 9059 48ba 149e 7bbd 3c2a 8e3d
00000080: 6ae5 a6be d603 a93d edd0 81be 2fa5 16be
00000090: 82f8 19be 99cd 0f3f 8bbc b5be 0982 283e
000000a0: 2f37 2b3e fa07 42be 247d a2bd a283 2bbe
000000b0: 0829 9e3e 482f 5cbd 7c1c 6dbe c01a b13d
000000c0: 39da a23e 4f8b f53e 9e60 0b3b 7b66 d1be
000000d0: b6dc d2bd a2e7 183e 3be8 bfbe 03b4 b1be
000000e0: bdf1 17bf e17c 01bf d800 f73d f477 ad3e
000000f0: ec58 11be bb82 883e 3950 55be 6cad db3d
00000100: bc34 fbbe 6dda a3be 2a23 c3bc 8a60 86bd
00000110: 36a3 aebe f578 533f ae8a e3bd 775e 2d3e
00000120: a82c 8fbc ea09 81be 1a1f 063e 4e96 0f3e
00000130: efad 53bd 1fec 05be 10a5 8a3e 7c27 9fbc
00000140: 8762 3bbd d61b 1e3e 5e6c 3a3e 50a9 b33c
00000150: fa82 3ebe 63ba 71bd 7d66 a73d 9d75 193e
00000160: 9090 f9bd b360 653e 151f 3abe d7bc a2be
00000170: 102a 093e 0788 90bc 6466 ff3e 3ffe 5abe
00000180: 8312 933a 5d46 b53d 8f3a 0dbe f8d4 623e
00000190: 9d2e 973d a82f 42be 8a0e 093d 3070 15be
000001a0: f6a6 c9be 8c6d e1bc 2da4 c8be 5a8c 91be
000001b0: 1140 583d 2c28 123f 0882 09bd 93b0 1bbe
000001c0: 0ad2 74be bad4 5abe c491 493e e73a 0cbe
000001d0: 572f e23d 67e5 023c 055c 0fbe 03ea f0bd
000001e0: 46af b53e d47e 183e b0c4 f5bd 5983 723d
000001f0: 7af4 2d3e b3a3 26bc 8099 8abe e70f 75be
00000200: 67bf 293e 2c88 3cbc 72f2 29be 8fa2 453d
00000210: fc0c 48be 10c2 5d3e 1b61 053b 283f 5ebc
00000220: 3767 88be 0640 8ebd b122 633e 1258 753e
00000230: 026c b8be 10bc fdbc 825b 5cbe fcec 0abe
00000240: 4df9 913e cb87 393e b975 90bd 8297 973e
00000250: 6323 babd 62b2 5f3e 7573 c2be c6a6 93be
00000260: d28c c13b 9247 ad3e c17e 12bf 0f9a a8bd
00000270: f166 b13d d04a b4bb d195 a33e 9bc8 f8bd
00000280: e8c6 bf3d e91b 35bf 679f bb3e b470 833e
00000290: 202b 34bd c15b 5bbe 4ed4 203f 34e6 e8be
000002a0: 4a85 ab3d 14c4 9f3d e343 783e 0c52 89b9
000002b0: 73e6 0ebe f790 d5be 5b83 6e3d 8cd9 3fbf
000002c0: be1a acbd 8f3a 173c 83b7 5abe b7a1 9fbc
000002d0: b2bc ab3e 50b4 003f 1634 42ba 7528 513f
000002e0: 55f5 793e 9b48 55bc b6a4 46be de1e 173e
000002f0: 1e45 093e 41b0 bdbe 23d7 133e 94a2 79be
00000300: aa2b c43e 231a 9c3e d364 37be d056 20bd
00000310: 6760 183f 2cfe 9e3e c97f 573e 7cff 023d
00000320: 79e1 99be 10f1 1cbd c2d8 573e 60fa ea3d
00000330: c82d 5d3e 3fcc 173e cf48 2abe 7ff2 db3d
00000340: ed0f aa3e b283 003d b786 983d 3c53 ce3d
00000350: 265c 1ebe cdb0 f33e 7a4a a63c bff0 09bf
00000360: 9c7c f8be 1225 5bbe 915a 56bc 2377 1c3e
00000370: 80e6 48be 7545 44be e56f 063c 8f60 9d3d
00000380: e87a 10bd b874 b7bd 342c 18be 3323 53be
00000390: 0623 6d3d dcf6 033e 5ca1 67be 5bcc cdbc
000003a0: cb37 313e 8ec6 59be f49b 9cbd 3766 d4bd
000003b0: 2677 e2bd e9cc a33e 549a a9be 182d a4bd
000003c0: 3e5a 743b 6c73 19bd 90b8 58bd ca1a babe
000003d0: 73f5 0c3e 84db 313e fbd9 4fbe 7e15 c13d
000003e0: 3aad 2b3d 3a1f 52bd 748a 203c 0f08 723e
000003f0: c5ad f53d de27 43be bddc 44be 9a27 983e

layers.2.att_src f4 [1, 1, 16]
0.8660213 0.33420926 -0.44474444 0.09515607 -0.5011704 0.34234303 -0.045658406 0.26171753
0.0725349 0.18180005 -0.39223534 0.36382458 -0.5420959 0.3358568 1.0375733 -0.20288758
00000000: 92b3 5d3f 7a1d ab3e 8bb5 e3be 30e1 c23d
00000010: b44c 00bf 9647 af3e 4f04 3bbd d7ff 853e
00000020: 2d8d 943d cb29 3a3e 12d3 c8be 3747 ba3e
00000030: ccc6 0abf 6cf5 ab3e 34cf 843f c3c1 4fbe

layers.2.att_dst f4 [1, 1, 16]
0.47793776 -0.21837337 -0.15164879 0.9767454 0.09662635 0.93181264 -0.061724514 -0.59197795
-0.6856506 -0.4554978 -0.20520295 -0.4397949 0.069034375 -0.14325958 -0.32011464 -0.5717201
00000000: 42b4 f43e 459d 5fbe d249 1bbe fd0b 7a3f
00000010: 09e4 c53d 468b 6e3f d8d2 7cbd de8b 17bf
00000020: cc86 2fbf 0237 e9be b920 52be cc2c e1be
00000030: e561 8d3d a4b2 12be 11e6 a3be 405c 12bf

layers.2.bias f4 [16]
-0.0599688 0.16013294 0.021922326 -0.064800866 0.07359406 0.03966748 0.033737943 0.0030610175
0.095952444 0.004247552 0.09096021 0.024972105 0.055381075 -0.064879164 -0.11033293 0.10912876
00000000: d8a1 75bd e4f9 233e 7396 b33c 51b6 84bd
00000010: 7cb8 963d 5e7a 223d cc30 0a3d 5a9b 483b
00000020: b782 c43d 0c2f 8b3b 5949 ba3d 4d92 cc3c
00000030: 44d7 623d 5edf 84bd 3bf6 e1bd e67e df3d

layers.2.lin.weight f4 [16, 32]
-0.43425146 -0.7796731 -0.27758947 -0.061404712 -0.18610144 -0.54322046 0.15921924 -0.023347663
0.13500413 -0.30471677 0.13674036 -0.05408375 -0.25880817 -0.68397605 -0.027345113 0.023888266
-0.57729536 0.08240598 -0.12108149 -0.15502903 -0.42917532 -0.2072685 -0.8864307 0.38153765
-0.37073895 0.18910055 0.033965643 -0.18885854 -0.8975345 -0.4582142 -0.16514911 0.11532678
0.64523333 -0.34918565 0.023961924 0.0053088525 -0.10764095 -0.3571379 -0.11499321 0.17624828
0.16709206 0.20949991 -0.35947242 -0.066111706 -0.061368287 -0.33237275 0.09249584 -0.083007105
-0.20950387 -0.22380699 0.2888278 0.36896124 0.092702106 -0.019691756 -0.6022415 0.47835952
0.09378352 -0.15437604 -0.16938683 -0.19732636 -0.15643474 0.1997967 0.1566123 -0.00922529
-0.18934235 -0.21969128 -0.20869054 0.1288932 0.8159652 -0.086519025 0.0894049 -0.3531127
0.12106824 0.07088101 0.14121705 0.11009636 -0.02753796 -0.35023782 -0.27037716 0.011592171
-0.23830564 0.16219749 -0.22618462 0.30753785 -0.16476682 0.26776835 0.26225752 -0.3170458
-0.085116684 -0.19010878 0.41391903 -0.40751147 -0.053455956 0.10218984 0.091408394 0.0038112851
0.030725889 0.020719454 -0.36646253 -0.14185487 -0.26260594 0.09695924 0.37768316 -0.073221005
-0.5236692 -0.49274492 -0.10059405 -0.29495883 -0.47530878 -0.51823545 -0.047818728 -0.28618187
-0.020636044 -0.31289732 -0.22871083 -0.56887084 -0.26010856 -0.20175026 -0.024132883 -0.04414063
-0.0011939913 0.22759266 -0.07365588 -0.55685586 -0.5003743 -0.031076387 -0.0043114005 -0.041413583
0.47742027 0.36090407 0.008162739 0.438795 0.8148206 0.2997912 0.3530038 -0.16258739
0.38384894 0.42070386 0.008854061 0.009671122 -0.06923342 -0.43912175 -0.27386948 -0.28052735
0.0494265 -0.35184866 -0.18891068 0.1330162 0.20244154 -0.08565899 -0.039324302 -0.36336163
-0.1310932 0.21239914 0.13780329 -0.15084809 0.8778528 0.54425615 -0.0030862633 -0.089004
-0.1469173 -0.5599568 -0.4540901 0.071451746 -0.55935407 -0.3110706 0.32643345 0.54904747
-0.19316594 -0.3885197 -0.2550243 -0.4769 -0.48361048 -0.5367302 -0.033382546 0.11819561
0.08507872 0.14601065 -0.26461586 0.066181496 0.06673774 -0.39960223 -0.14568652 -0.050619718
0.16659273 0.16407561 -0.22988155 -0.70005655 -0.9623508 -0.4375908 0.020860942 0.32111132
-0.03952197 -0.37677357 0.2532224 0.32613063 0.13106829 0.37438336 0.14305486 0.003500538
0.2769695 0.3343752 0.116063125 0.38291535 0.25896987 -0.06392089 -0.13099301 -0.22862479
-0.18182914 0.19699368 -0.0051849643 0.2277335 -0.13442056 0.30246887 0.3979932 -0.4984863
0.36376306 -0.14364508 0.060781933 -0.41882482 -0.06672252 0.18097463 -0.12530667 0.0701267
-0.09531359 0.16647594 0.2579219 0.042628415 -0.28891104 -0.009439359 0.23364067 -0.16313535
0.06256492 0.3008101 -0.18508624 0.17867471 -0.18760973 -0.10603804 0.08783519 -0.5091989
0.23323633 0.36560944 0.039290704 0.40632784 0.40515974 -0.1991973 0.2715519 -0.24327853
-0.013857848 0.034187026 -0.044411168 -0.47473076 0.518064 -0.3408836 0.011858082 0.38475105
00000000: 3556 debe a898 47bf 3520 8ebe 8283 7bbd
00000010: 6091 3ebe 7f10 0bbf 5e0a 233e 9943 bfbc
00000020: 863e 0a3e d603 9cbe aa05 0c3e ec86 5dbd
00000030: 8182 84be 0e19 2fbf dc02 e0bc 53b1 c33c
00000040: a1c9 13bf 77c4 a83d 92f9 f7bd eebf 1ebe
00000050: debc dbbe 323e 54be 1fed 62bf e758 c33e
00000060: 7fd1 bdbe 93a3 413e 8f1f 0b3d 2264 41be
00000070: d2c4 65bf 0d9b eabe d91c 29be 7230 ec3d
00000080: 032e 253f 76c8 b2be cc4b c43c e2f5 ad3b
00000090: dc72 dcbd c7da b6be 8f81 ebbd 6e7a 343e
000000a0: 2e1a 2b3e 2587 563e c50c b8be 9365 87bd
000000b0: 505d 7bbd c32c aabe 756e bd3d a1ff a9bd
000000c0: 2f88 56be a92d 65be 3de1 933e 7de8 bc3e
000000d0: 9ada bd3d 9b50 a1bc 802c 1abf 8aeb f43e
000000e0: 9311 c03d c114 1ebe be73 2dbe ec0f 4abe
000000f0: 6e30 20be 8297 4c3e fa5e 203e ac25 17bc
00000100: f6e2 41be c0f6 60be f9b2 55be 94fc 033e
00000110: 18e3 503f e330 b1bd eb19 b73d 30cb b4be
00000120: a0f2 f73d 102a 913d 349b 103e 337a e13d
00000130: 4a97 e1bc 5f52 b3be e06e 8abe 17ed 3d3c
00000140: 6506 74be 1917 263e f19c 67be 9a75 9d3e
00000150: a2b8 28be ef18 893e 9e46 863e d453 a2be
00000160: a851 aebd e0ab 42be 32ed d33e 58a5 d0be
00000170: a2f4 5abd e848 d13d 5334 bb3d c1c6 793b
00000180: dcb4 fb3c d8bb a93c faa0 bbbe 6742 11be
00000190: 4974 86be 9192 c63d b05f c13e e5f4 95bd
000001a0: 2f0f 06bf 1049 fcbe 4104 cebd d804 97be
000001b0: ac5b f3be 14ab 04bf 92dd 43bd 6e86 92be
000001c0: ec0c a9bc 1434 a0be 2c33 6abe 85a1 11bf
000001d0: f32c 85be 9f97 4ebe 53b2 c5bc cecc 34bd
000001e0: b37f 9cba 0d0e 693e e5d8 96bd 1b8e 0ebf
000001f0: 8818 00bf e893 febc a646 8dbb 4aa1 29bd
00000200: 6e70 f43e 6bc8 b83e 02bd 053c bda9 e03e
00000210: 1598 503f 3b7e 993e eabc b43e 4f7d 26be
00000220: d987 c43e 7f66 d73e a010 113c a073 1e3c
00000230: 40ca 8dbd 91d4 e0be 9f38 8cbe 48a1 8fbe
00000240: 7173 4a3d 8225 b4be cd71 41be 6635 083e
00000250: d64c 4f3e fb6d afbd 8512 21bd 890a babe
00000260: 4c3d 06be 297f 593e 4e1c 0d3e ec77 1abe
00000270: f6ba 603f 5f54 0b3f e842 4abb bb47 b6bd
00000280: 7d71 16be 5459 0fbf 7f7e e8be 4b55 923d
00000290: d431 0fbf a544 9fbe 4922 a73e 608e 0c3f
000002a0: 4bcd 45be 0eec c6be 8c92 82be 3d2c f4be
000002b0: cb9b f7be 2667 09bf 23bc 08bd 8a10 f23d
000002c0: c03d ae3d d183 153e bb7b 87be 2a8a 873d
000002d0: ccad 883d aa98 ccbe d92e 15be 9f56 4fbd
000002e0: 4997 2a3e 7003 283e 1266 6bbe e836 33bf
000002f0: 9f5c 76bf e70b e0be 91e4 aa3c b468 a43e
00000300: cae1 21bd 77e8 c0be 5ea6 813e 98fa a63e
00000310: c436 063e 2daf bf3e f97c 123e 4869 653b
00000320: f2ce 8d3e 3a33 ab3e 81b2 ed3d 7b0d c43e
00000330: b397 843e f5e8 82bd 0823 06be 9e1c 6abe
00000340: 6b31 3abe b6b8 493e a2e6 a9bb f832 693e
00000350: 8ba5 09be 33dd 9a3e c4c5 cb3e 9939 ffbe
00000360: 273f ba3e b217 13be 7af6 783d 3570 d6be
00000370: d1a5 88bd 6a51 393e 6450 00be 969e 8f3d
00000380: c533 c3bd ab78 2a3e 570e 843e 229b 2e3d
00000390: 26ec 93be 8ba7 1abc 803f 6f3e f40c 27be
000003a0: 0922 803d c803 9a3e 3f87 3dbe 81f6 363e
000003b0: c41c 40be 792a d9bd f0e2 b33d dc5a 02bf
000003c0: 81d5 6e3e 2931 bb3e 4aef 203d 340a d03e
000003d0: 1971 cf3e 61fa 4bbe da08 8b3e 021e 79be
000003e0: 070c 63bc b207 0c3d 7ce8 35bd e90f f3be
000003f0: d89f 043f 4c88 aebe 6748 423c 17fe c43e

predictor.att_src f4 [1, 1, 2]
0.23572576 -2.8807454
00000000: 1862 713e 225e 38c0

predictor.att_dst f4 [1, 1, 2]
0.8017193 1.5440131
00000000: 7a3d 4d3f 39a2 c53f

predictor.bias f4 [2]
0.069190584 -0.06919057
00000000: cbb3 8d3d c9b3 8dbd

predictor.lin.weight f4 [2, 120]
-0.7750827 0.4404916 0.17688876 -0.047379307 1.01629 0.45194137 0.605635 0.42913446
0.09535019 -0.16634929 -0.19506143 0.7649815 0.61360633 0.48364702 0.42454606 -0.026294895
0.56308573 0.609746 -0.07603445 0.5918649 -0.12429141 0.5865161 0.3787761 0.4330859
0.55556655 0.5745822 0.37336332 -0.63049316 0.5261499 0.9427483 0.510461 0.69157904
0.6432412 -0.05727613 0.6920009 0.70962656 -0.1265329 0.17330424 -0.09879465 -0.12121203
0.3029142 0.5999662 0.089800954 0.39983702 0.60814345 0.10681615 0.48659474 0.99870217
0.3811189 -0.31406033 -0.009005237 0.608058 -0.12646906 0.7567436 0.5485127 0.72611094
0.45326173 0.5913282 0.58077925 0.4654269 0.6342598 0.059905186 0.8508913 0.5197427
0.70929307 -0.017777473 -0.12773743 0.32451347 0.57055444 -0.43218967 0.6619706 0.26715067
0.77675384 0.21318543 0.231762 0.17396408 -0.22622141 0.05337847 -0.63481385 0.042324193
0.08260362 -0.014128946 -0.043533828 -0.22481659 0.36304507 0.012951566 0.027614892 0.08379634
0.42450115 -0.19416037 -0.32734492 0.26369724 0.0851379 0.2801881 0.11359732 -0.44972685
-0.067167394 -0.36134937 -0.3950466 -0.11659529 0.12502058 -0.46501946 -0.44858748 0.42102954
0.07842769 -0.30012113 -0.065102376 -0.074953176 0.24754435 0.11444932 0.2652385 -0.050106395
0.11731728 -0.19603725 0.5063974 -0.20806532 0.19530372 0.17450792 0.15994248 -0.37459284
0.9496274 -0.53358173 0.0921924 0.028945383 -0.6781402 -0.6605741 -0.38832846 -0.53897184
-0.33337638 0.030214699 0.15822259 -0.38569775 -0.5403663 -0.6878708 -0.6808755 0.04039675
-0.48225573 -0.53292847 -0.16556484 -0.5146392 0.040972672 -0.5309582 -0.10227817 -0.33157945
-0.1989474 -0.45701587 -0.4697886 1.131193 -0.5975346 -0.50990504 -0.5550683 -0.3659545
-0.45207328 -0.042487927 -0.64596575 -0.5431942 0.046778496 0.13942195 -0.06648052 -0.09990465
-0.53419554 -0.53271884 -0.007482346 -0.6936463 -0.6729227 -0.3068295 -0.3019016 -0.56816036
0.0070809424 0.9828266 0.15689483 -0.43382367 -0.23292133 -0.6668166 -0.59730697 -0.60221726
-0.26521125 -0.5947257 -0.44432715 -0.3027632 -0.41367623 0.30467844 -0.58539784 -0.5882778
-0.663046 0.12735547 0.16125512 -0.080808625 -0.5950647 1.2594175 -0.51691186 -0.04767939
0.16000296 -0.09756453 -0.18985224 0.018669708 -0.07816056 -0.2985596 -0.22557566 -0.23246086
-0.1820284 -0.27865115 -0.05085878 -0.26087102 0.046192903 0.06974782 0.08422145 -0.0018148639
-0.08910955 -0.18539044 -0.3572128 -0.12188703 -0.24651827 0.030143328 -0.0317344 0.15047804
0.08034383 -0.35696498 -0.19860083 -0.009183529 0.4317198 -0.32570136 -0.41609368 -0.10099008
0.038666956 -0.28287742 -0.1422613 -0.08994727 0.25325322 -0.08655397 -0.107788526 -0.19008236
-0.14993311 -0.1487739 -0.115796566 -0.11510328 -0.11420452 -0.06755268 -0.16780724 0.35470852
00000000: d26b 46bf 1d88 e13e 5422 353e ce10 42bd
00000010: ca15 823f dc64 e73e e50a 1b3f 83b7 db3e
00000020: f646 c33d 7857 2abe 2fbe 47be d4d5 433f
00000030: 4e15 1d3f 95a0 f73e 1a5e d93e 6468 d7bc
00000040: 6326 103f 5018 1c3f f3b7 9bbd 7584 173f
00000050: 7f8c febd eb25 163f f1ee c13e 6fbd dd3e
00000060: 9c39 0e3f d217 133f 7a29 bf3e 0068 21bf
00000070: c3b1 063f f457 713f 92ad 023f 530b 313f
00000080: 75ab 243f 609a 6abd f926 313f 16aa 353f
00000090: d791 01be ab76 313e d954 cabd 033e f8bd
000000a0: 9217 9b3e 6397 193f 90e9 b73d 70b7 cc3e
000000b0: 4aaf 1b3f 6dc2 da3d f222 f93e f2aa 7f3f
000000c0: 0422 c33e 84cc a0be b48a 13bc b0a9 1b3f
000000d0: 1b81 01be f3b9 413f 546b 0c3f 68e2 393f
000000e0: ec11 e83e 4961 173f f3ad 143f 6f4c ee3e
000000f0: da5e 223f 245f 753d 03d4 593f dc0d 053f
00000100: 3b94 353f 10a2 91bc 9acd 02be a126 a63e
00000110: db0f 123f f747 ddbe e876 293f f9c7 883e
00000120: 57d9 463f 484d 5a3e 0553 6d3e a423 323e
00000130: 96a6 67be 62a3 5a3d 2983 22bf 225c 2d3d
00000140: 162c a93d 187d 67bc 8750 32bd 5236 66be
00000150: 0be1 b93e ce32 543c a038 e23c 6a9d ab3d
00000160: 3758 d93e fad1 46be c199 a7be 5303 873e
00000170: c85c ae3d d174 8f3e b6a5 e83d 9942 e6be
00000180: 0f8f 89bd c902 b9be 8c43 cabe 83c9 eebd
00000190: 6505 003e 0817 eebe 42ad e5be 2f91 d73e
000001a0: b29e a03d 7aa9 99be 6554 85bd 0d81 99bd
000001b0: 447c 7d3e 6864 ea3d 57cd 873e 5d3c 4dbd
000001c0: 0b44 f03d fdbd 48be 43a3 013f 130f 55be
000001d0: b3fd 473e 34b2 323e f6c7 233e a2ca bfbe
000001e0: c81a 733f d098 08bf 5ecf bc3d de1e ed3c
000001f0: 999a 2dbf 621b 29bf fdd2 c6be 0ffa 09bf
00000200: 4fb0 aabe d184 f73c 1a05 223e 2d7a c5be
00000210: 7255 0abf 4d18 30bf db4d 2ebf 1077 253d
00000220: 39ea f6be 006e 08bf d489 29be 65bf 03bf
00000230: f6d2 273d e0ec 07bf 3877 d1bd c8c4 a9be
00000240: deb8 4bbe fcfd e9be 2288 f0be efca 903f
00000250: 07f8 18bf 2389 02bf f518 0ebf 635e bbbe
00000260: 2676 e7be d207 2ebd 035e 25bf c60e 0bbf
00000270: cf9a 3f3d a1c4 0e3e f026 88bd cf9a ccbd
00000280: 0ac1 08bf 4360 08bf 782e f5bb ce92 31bf
00000290: a944 2cbf c218 9dbe d992 9abe f572 11bf
000002a0: 4007 e83b 869a 7b3f 0aa9 203e 231e debe
000002b0: ee82 6ebe 7eb4 2abf 1ce9 18bf e92a 1abf
000002c0: c5c9 87be f23f 18bf d97e e3be c703 9bbe
000002d0: 5fcd d3be d0fe 9b3e a2dc 15bf 6099 16bf
000002e0: 62bd 29bf 7969 023e 1020 253e fe7e a5bd
000002f0: 2956 18bf 9834 a13f 5654 04bf 774b 43bd
00000300: d1d7 233e eacf c7bd a068 42be 37f1 983c
00000310: a512 a0bd cedc 98be 4efd 66be 380a 6ebe
00000320: a765 3abe 5dab 8ebe 4c51 50bd e390 85be
00000330: c534 3d3d f2d7 8e3d 4c7c ac3d bae0 edba
00000340: 117f b6bd fed6 3dbe 99e4 b6be e89f f9bd
00000350: 496f 7cbe 24ef f63c eefb 01bd ea16 1a3e
00000360: 4e8b a43d 1dc4 b6be 045e 4bbe 8376 16bc
00000370: 610a dd3e 54c2 a6be 3b0a d5be e3d3 cebd
00000380: 3e61 1e3d 4fd5 90be f2ac 11be 4636 b8bd
00000390: 68aa 813e 3543 b1bd 3bc0 dcbd f3a4 42be
000003a0: 1188 19be 2f58 18be c026 edbd 45bb ebbd
000003b0: 0fe4 e9bd 0f59 8abd a9d5 2bbe 5b9c b53e
