khmernlp/tokenize/modules/jaws/output/config.gat.pt (torch, 102754 bytes, 16 tensors)

layers.0.att_src f4 [1, 1, 72]
-0.09396033 0.25226405 -0.25753054 -0.24217707 -0.002577364 -0.5104183 -0.75147855 -0.8260282
-0.11176098 -0.0063431007 -0.32549933 -0.38535604 -0.20250587 0.10946365 -0.5693551 -0.11136717
-0.07311432 0.16804066 -0.868281 -0.121538155 -0.14403315 0.67587185 -0.6820924 -0.2562108
-1.2224197 -0.22315179 -0.3337405 -0.64644897 -0.46517015 -0.45939034 -0.27009597 0.529308
-0.0044881767 0.2787398 1.5914197 -0.17709398 -0.7263198 -0.5418004 -0.5395974 0.031127876
-0.337555 -0.5006894 -0.60826075 -0.1301669 -0.0032743122 -0.584501 -0.8132148 0.16686559
-0.13975672 -0.42085814 -0.71149397 1.2352432 -0.44797873 -0.43850204 -0.57523215 -0.16054896
-0.6516815 1.6000792 -0.5145353 -0.40723738 -0.34777042 0.28584087 -0.62221926 0.8464314
-0.1320041 0.32438493 0.13780351 -0.1271657 0.04569106 0.114041686 -0.3035451 -0.13859075
00000000: 466e c0bd c128 813e 0bdb 83be 44fd 77be
00000010: fee8 28bb c6aa 02bf e660 40bf 9676 53bf
00000020: f1e2 e4bd c9d9 cfbb d9a7 a6be 634d c5be
00000030: b35d 4fbe 7a2e e03d 41c1 11bf 7914 e4bd
00000040: f6bc 95bd da12 2c3e aa47 5ebf ffe8 f8bd
00000050: 6d7d 13be f005 2d3f 9c9d 2ebf 102e 83be
00000060: 4078 9cbf e781 64be 09e0 aabe ae7d 25bf
00000070: c82a eebe 3635 ebbe 054a 8abe bb80 073f
00000080: 8e11 93bb fcb6 8e3e a4b3 cb3f 2058 35be
00000090: 18f0 39bf 6eb3 0abf 0e23 0abf e3ff fe3c
000000a0: 02d4 acbe 2e2d 00bf fab6 1bbf 794a 05be
000000b0: d895 56bb dca1 15bf d82e 50bf d0de 2a3e
000000c0: 631c 0fbe b87a d7be 7824 36bf 731c 9e3f
000000d0: 785d e5be 5783 e0be 6a42 13bf f266 24be
000000e0: 99d4 26bf 65cf cc3f 96b8 03bf 6b81 d0be
000000f0: f70e b2be bc59 923e c349 1fbf baaf 583f
00000100: 152c 07be c815 a63e 5d1c 0d3e ba37 02be
00000110: 8d26 3b3d b08e e93d 436a 9bbe bcea 0dbe

layers.0.att_dst f4 [1, 1, 72]
0.9977663 -1.067947 0.5344074 -1.6485482 -0.845634 -0.3952781 1.2193687 -0.16704339
-0.11676627 -0.59463197 1.0330731 0.8945337 -0.3341753 -1.6642109 -0.08280303 0.6913047
0.6389393 0.6826058 -0.17970987 -0.5500856 -0.8784289 0.19756903 0.14700998 0.13685882
-0.31245995 -2.4989882 -0.31986803 -0.39949223 -0.17462562 -0.18137625 -0.7945258 -0.11935103
0.3796996 -0.5058038 0.76652247 0.6406897 -2.577966 0.8779655 0.38909632 -0.36960706
-0.42409322 1.6548562 0.6788152 -0.6119316 -0.8032545 -0.6717951 -0.13492621 -2.4248815
-0.13816766 0.060330052 -0.15038626 0.15271391 0.4268952 -1.6131457 -1.1344477 -1.7630458
-0.017375235 0.1204498 0.22340998 0.039128073 0.97487295 0.20053759 0.5946417 -0.7383597
1.6842711 0.16680637 -1.692469 -0.88183236 -1.4824847 -0.12797791 0.123576425 0.66434145
00000000: 9d6d 7f3f 7db2 88bf ecce 083f a103 d3bf
00000010: 787b 58bf e461 cabe 4614 9c3f 6c0d 2bbe
00000020: 2723 efbd cd39 18bf bd3b 843f 2900 653f
00000030: 0619 abbe dd04 d5bf a394 a9bd 58f9 303f
00000040: 8791 233f 41bf 2e3f dd05 38be 69d2 0cbf
00000050: b7e0 60bf 894f 4a3e c989 163e b824 0c3e
00000060: c0fa 9fbe 6cef 1fc0 bec5 a3be 3f8a ccbe
00000070: 0fd1 32be b2ba 39be 0b66 4bbf 506e f4bd
00000080: fc67 c23e 5c7c 01bf d13a 443f 3d04 243f
00000090: 65fd 24c0 59c2 603f a237 c73e 233d bdbe
000000a0: bf22 d9be 54d2 d33f d5c6 2d3f 8da7 1cbf
000000b0: 16a2 4dbf c4fa 2bbf 192a 0abe 4231 1bc0
000000c0: d37b 0dbe a51c 773d dbfe 19be 0961 1c3e
000000d0: 0292 da3e 8f7b cebf 9535 91bf 7cab e1bf
000000e0: 8256 8ebc 62ae f63d 96c5 643e c244 203d
000000f0: 4691 793f ba59 4d3e 703a 183f 2405 3dbf
00000100: 3296 d73f 4acf 2a3e d3a2 d8bf c4bf 61bf
00000110: 0fc2 bdbf a40c 03be a315 fd3d 4812 2a3f

layers.0.bias f4 [72]
-0.6204327 -1.6499667 -0.7135426 -0.12033525 -0.16852629 -0.57239157 -0.2400002 1.2188064
-0.17290579 -0.7867375 -0.19324613 0.39618212 -0.47471923 -0.8638985 0.65579927 -0.49821004
-0.0855603 -0.44109458 0.27108932 0.65905184 -0.39529565 -0.13620985 0.3017044 -0.24047384
0.36812136 -0.97092265 0.10257701 0.6539798 0.78617615 0.2791694 -0.70396346 -0.50513756
0.051588036 -0.18688999 0.43049473 0.22839999 -0.19297019 -0.6507808 0.0026745773 -0.4836061
-0.7780267 -0.22350147 0.112484895 -0.27462974 -0.9076846 0.12147808 0.33079484 -0.24326026
-0.58521235 0.03775761 0.6453141 1.198861 0.55568635 -0.021393485 -0.5211395 -1.0784568
-0.27133396 0.34830663 -0.15967776 -0.16773316 -0.3947777 -0.6579683 -0.053147048 2.327656
-1.1289891 -0.5780188 0.0713912 0.51122725 -0.64114493 0.09400983 0.16999575 -0.034169983
00000000: add4 1ebf 1c32 d3bf baaa 36bf 5472 f6bd
00000010: 2892 2cbe 4188 12bf 9dc2 75be d901 9c3f
00000020: 370e 31be a167 49bf 50e2 45be 62d8 ca3e
00000030: 660e f3be 7428 5dbf 76e2 273f 6315 ffbe
00000040: 3d3a afbd 26d7 e1be 38cc 8a3e 9fb7 283f
00000050: 3164 cabe 987a 0bbe 0079 9a3e c63e 76be
00000060: 677a bc3e 638e 78bf e513 d23d 386b 273f
00000070: d742 493f 4bef 8e3e f336 34bf b250 01bf
00000080: fa4d 533d 1760 3fbe ce69 dc3e b0e1 693e
00000090: fa99 45be 9299 26bf f647 2f3b 389b f7be
000000a0: c22c 47bf 92dd 64be 7b5e e63d 459c 8cbe
000000b0: 055e 68bf 80c9 f83d f15d a93e 3819 79be
000000c0: 7ad0 15bf b9a7 1a3d 4e33 253f 4774 993f
000000d0: 7641 0e3f 6441 afbc 6669 05bf df0a 8abf
000000e0: 49ec 8abe 3f55 b23e 9182 23be 3ec2 2bbe
000000f0: 4d20 cabe 9c70 28bf b8b0 59bd 51f8 1440
00000100: b782 90bf 0af9 13bf 8d35 923d cadf 023f
00000110: 1322 24bf 3a88 c03d 5e13 2e3e d3f5 0bbd

layers.0.lin.weight f4 [72, 290]
0.3758992 -0.34648097 -1.4631997 0.50019395 -0.45361584 0.2921365 -0.14916453 0.048425972
0.34089208 0.2229585 -0.042916168 0.059674926 -0.008985855 -1.3628329 0.32392192 0.85488635
1.4505142 -0.9618056 -0.12698793 -0.13278472 0.077149145 -1.1929985 1.0081061 -0.6476292
1.765291 -1.5708594 -0.9893929 0.12191413 -0.03723603 0.39042446 0.9069198 -0.5229306
0.15103866 -0.41758528 2.2210004 1.9132267 -0.7555386 1.056584 0.36532903 -0.9957029
1.7088947 -0.2045466 0.11720948 0.08328156 -0.024224535 0.018176025 0.13940205 2.5107095
0.417966 0.051072374 0.05118577 0.24079233 0.27136713 -0.20823668 0.071587026 -0.07913345
1.4620639 0.40549964 -0.13376994 0.5104219 0.2935402 -1.2171608 -0.066120476 0.23933223
0.7913615 0.41866815 0.056838855 0.011043161 -0.299277 -0.33189505 -1.271859 2.7711923
-0.042847037 0.6504095 0.9495737 0.9060772 -0.8348556 0.039144736 2.3229942 0.32589194
0.7708675 -0.33703852 1.0435278 -0.81036156 1.4718152 -2.0029817 -0.8758361 0.6347973
1.4287415 -1.2636393 0.2465398 0.13079631 0.07601241 0.28071514 0.66652274 -0.22886777
-0.12566991 -0.023885064 -1.0855331 0.057682097 0.09871487 0.05255744 0.0610656 -1.7418888
-1.5846386 -1.6723069 -1.3230052 -0.73005056 -0.7349738 0.5241323 0.059051577 -1.8486613
-0.21104014 -0.10256246 0.07414155 -0.004170686 0.025380716 -0.059893258 0.11402415 -0.007281825
-0.0987939 -0.06516317 -0.018749483 -0.0549801 -0.04842899 -0.08114363 0.0027251095 0.01653421
0.06603928 -0.120130025 -0.0622463 0.018609136 -0.08364546 -0.027602114 0.103697374 0.02439697
-0.09025048 0.11761029 -0.045341395 -0.061296456 -0.078703806 -0.038760953 -0.10846503 0.025793985
0.0026894212 0.46064702 -1.540537 0.7203068 0.7374272 0.050489355 -0.9104402 0.20400105
-0.100223005 -0.060716607 -0.09665951 -0.20363694 -0.0712578 0.03640506 -0.38660797 -1.0900391
-0.46095526 -1.1608751 -1.8128889 1.5173645 -1.3595928 0.8842564 -2.7311184 -1.5528145
1.488107 -1.2286078 0.13380133 0.74065876 1.7331257 1.3995575 1.2287433 -1.0085915
0.3783279 -0.17643628 -0.06931388 0.02780194 -1.3633574 -0.053562466 1.4589716 1.5346382
-0.6145634 1.3372698 0.23658563 0.38122448 0.047885686 0.048049092 -0.8567509 -0.27844602
2.2762258 0.4061082 0.08709481 0.12120424 -0.3307937 0.046146847 -0.56645495 0.05714175
0.060270056 -0.8623722 -0.24083391 -1.1712432 0.44726032 -0.9238796 -1.3843567 -0.079812214
0.90066594 0.034481592 -0.43342227 -0.10690813 -0.071552366 -0.8944101 2.0837271 1.8893503
1.3661206 1.0320077 0.133845 -0.5766766 -0.3836074 0.059229292 0.9681546 0.683135
-0.3170414 1.3897052 0.08908775 0.4676353 0.84492385 0.29987124 1.1057171 1.5524935
1.1050745 0.51028085 1.8988866 0.70588183 -0.5164945 0.028070321 0.8417795 0.71522534
-0.71816677 -0.3177661 1.0636694 -0.8194025 0.020368531 -0.06838962 0.06345604 -0.043868653
1.3513187 -1.2028581 -1.4810325 -2.6645904 -1.4215938 -0.18585378 -0.7517821 -0.46487606
00000000: dc75 c03e f465 b1be 214a bbbf b60c 003f
00000010: 5640 e8be ea92 953e 96be 18be 505a 463d
00000020: 6889 ae3e 3c4f 643e ddc8 2fbd b26d 743d
00000030: 6839 13bc 4f71 aebf 18d9 a53e d5d9 5a3f
00000040: 73aa b93f e438 76bf 2009 02be b8f8 07be
00000050: 5f00 9e3d 2db4 98bf 9f09 813f 07cb 25bf
00000060: 0ef5 e13f ec11 c9bf da48 7dbf 1eae f93d
00000070: cf84 18bd b7e5 c73e e52b 683f c8de 05bf
00000080: e1a9 1a3e bdcd d5be df24 0e40 9de4 f43f
00000090: fa6a 41bf 253e 873f 680c bb3e 63e6 7ebf
000000a0: 10bd da3f aa74 51be 860b f03d 868f aa3d
000000b0: 8872 c6bc e3e5 943c 69bf 0e3e 77af 2040
000000c0: a4ff d53e 4431 513d 2ca8 513d 4492 763e
000000d0: a2f0 8a3e ff3b 55be 389c 923d b810 a2bd
000000e0: e924 bb3f a69d cf3e fdfa 08be 02ab 023f
000000f0: e74a 963e edcb 9bbf 2c6a 87bd 8213 753e
00000100: ab96 4a3f ac5b d63e dccf 683d 60ee 343c
00000110: d63a 99be 26ee a9be 47cc a2bf 375b 3140
00000120: 6080 2fbd 3d81 263f 4317 733f adf4 673f
00000130: 19b9 55bf 3b56 203d f0ab 1440 4fdb a63e
00000140: 9357 453f 5090 acbe 5292 853f db73 4fbf
00000150: 7164 bc3f da30 00c0 cb36 60bf 1382 223f
00000160: 00e1 b63f efbe a1bf ee74 7c3e 78ef 053e
00000170: 65ac 9b3d e5b9 8f3e 3ca1 2a3f 505c 6abe
00000180: 9daf 00be 9caa c3bc c0f2 8abf 1044 6c3d
00000190: 062b ca3d 7846 573d ec1f 7a3d 36f6 debf
000001a0: 70d5 cabf 270e d6bf 3c58 a9bf 98e4 3abf
000001b0: 3e27 3cbf 892d 063f 11e0 713d efa0 ecbf
000001c0: e81a 58be 440c d2bd 86d7 973d 40aa 88bb
000001d0: 38eb cf3c a252 75bd 7e85 e93d 609c eebb
000001e0: 7554 cabd 4574 85bd 8498 99bc d032 61bd
000001f0: 7a5d 46bd a22e a6bd c097 323b c072 873c
00000200: 9a3f 873d bb06 f6bd faf5 7ebd 3072 983c
00000210: 504e abbd d41d e2bc 4a5f d43d 28dc c73c
00000220: 3ed5 b8bd aadd f03d e6b7 39bd fe11 7bbd
00000230: 762f a1bd cec3 1ebd ea22 debd e84d d33c
00000240: 0041 303b edd9 eb3e 5130 c5bf 0766 383f
00000250: 07c8 3c3f edcd 4e3d 9c12 69bf a7e5 503e
00000260: b841 cdbd fab1 78bd 6cf5 c5bd 3486 50be
00000270: 9cef 91bd 791d 153d 7bf1 c5be 6786 8bbf
00000280: 5402 ecbe 8e97 94bf be0c e8bf 0039 c23f
00000290: 2307 aebf a15e 623f a5ca 2ec0 a0c2 c6bf
000002a0: 4a7a be3f 0543 9dbf 3703 093e d09b 3d3f
000002b0: 10d7 dd3f b324 b33f 7647 9d3f 8719 81bf
000002c0: 32b4 c13e b6ab 34be 6ff4 8dbd e5c0 e33c
000002d0: 7f82 aebf 5164 5bbd 95bf ba3f 066f c43f
000002e0: 0754 1dbf a82b ab3f 8143 723e db2f c33e
000002f0: c823 443d 20cf 443d 0754 5bbf 7a90 8ebe
00000300: afad 1140 6aed cf3e c45e b23d ee39 f83d
00000310: cb5d a9be 7a04 3d3d 3103 11bf 780d 6a3d
00000320: bcdd 763d 6dc4 5cbf 2a9d 76be 4ceb 95bf
00000330: 4eff e43e 6083 6cbf 9a32 b1bf 9674 a3bd
00000340: 0b92 663f 923c 0d3d 86e9 ddbe a6f2 dabd
00000350: 0c8a 92bd 0ff8 64bf c95b 0540 3bd6 f13f
00000360: 0add ae3f d418 843f aa0e 093e 14a1 13bf
00000370: 3068 c4be 6a9a 723d fbd8 773f efe1 2e3f
00000380: 4053 a2be dce1 b13f a373 b63d e56d ef3e
00000390: ee4c 583f b988 993e 2388 8d3f 1bb8 c63f
000003a0: 1573 8d3f c4a1 023f b70e f33f acb4 343f
000003b0: fc38 04bf bbf3 e53c dc7e 573f 0219 373f
000003c0: c7d9 37bf 3db2 a2be 5226 883f 5dc4 51bf
000003d0: e8db a63c db0f 8cbd 3ef5 813d 9eaf 33bd
000003e0: 03f8 ac3f 41f7 99bf 7992 bdbf a688 2ac0
000003f0: c9f6 b5bf 7450 3ebe cb74 40bf 3c04 eebe

layers.1.att_src f4 [1, 1, 32]
0.81920606 -0.67496854 0.94746864 -0.0716782 0.14332084 -0.5359281 -0.024678433 0.05996987
-3.7109551 4.7754955 -0.6262347 0.07030241 -0.56012136 0.4230541 -1.0199121 -1.5086207
0.037058122 1.6624048 -0.22701997 0.27390414 -2.3184264 0.19570018 -0.058214594 -1.2643477
0.14365068 2.2674913 -0.39664215 -0.10177419 -1.2783109 0.23562507 0.5688096 2.8493137
00000000: 7db7 513f bdca 2cbf 4e8d 723f 05cc 92bd
00000010: b3c2 123e 9532 09bf 6d2a cabc f7a2 753d
00000020: 4a80 6dc0 dcd0 9840 eb50 20bf b6fa 8f3d
00000030: 1d64 0fbf 8c9a d83e 7b8c 82bf 7c1a c1bf
00000040: 42ca 173d aec9 d43f ec77 68be 2a3d 8c3e
00000050: 1961 14c0 a165 483e 6d72 6ebd 25d6 a1bf
00000060: 2a19 133e 941e 1140 ae14 cbbe fd6e d0bd
00000070: b19f a3bf b347 713e 829d 113f 285b 3640

layers.1.att_dst f4 [1, 1, 32]
-0.13322102 -1.6806183 -1.8743018 -0.028946303 -0.60275054 -0.7389393 -0.29185313 -1.1376384
-0.048075397 -0.7608182 -0.4143358 -2.4919047 -0.89889705 -1.539043 -1.8356448 -1.8339972
-0.7100595 -1.477015 -1.1205692 -2.0130877 -1.8558598 -1.3849638 -0.8796321 -0.37888172
-0.49133512 -1.8973436 -0.8389593 -1.8317646 -0.8355085 -1.1939012 -1.7241542 -1.7745868
00000000: 176b 08be 801e d7bf 1fe9 efbf cc20 edbc
00000010: dc4d 1abf 202b 3dbf c66d 95be 239e 91bf
00000020: b5ea 44bd fbc4 42bf d223 d4be 5e7b 1fc0
00000030: 1e1e 66bf 5cff c4bf 69f6 eabf 6cc0 eabf
00000040: 76c6 35bf d40e bdbf d06e 8fbf 6ed6 00c0
00000050: d08c edbf 7e46 b1bf 922f 61bf c9fc c1be
00000060: 4790 fbbe 28dc f2bf 09c6 56bf 4377 eabf
00000070: e3e3 55bf c1d1 98bf 16b1 dcbf a925 e3bf

layers.1.bias f4 [32]
0.89873654 -1.0169593 -0.9329919 -0.15795124 -0.2894143 -0.42535365 -0.31712398 -0.42996153
0.7130265 0.28770918 -0.049479436 -0.59012926 -0.93412316 -1.3517679 -0.9494718 -0.8400812
-0.4560727 -1.2453814 -0.5383797 -1.1533251 -0.32034212 -0.35422537 -0.8376876 -0.9136108
-0.30200943 -2.312918 -1.0845482 -0.45819137 -0.72576404 -0.20280485 -0.6347905 -1.447592
00000000: 9913 663f b92b 82bf 8fd8 6ebf f8bd 21be
00000010: 1c2e 94be f4c7 d9be 135e a2be eb23 dcbe
00000020: e888 363f 9e4e 933e f3aa 4abd b612 17bf
00000030: b222 6fbf bb06 adbf 9510 73bf 900f 57bf
00000040: 5c82 e9be a868 9fbf 41d3 09bf 28a0 93bf
00000050: e203 a4be 075d b5be b272 56bf 66e2 69bf
00000060: fba0 9abe d906 14c0 7ad2 8abf 0f98 eabe
00000070: accb 39bf 13ac 4fbe a181 22bf b24a b9bf

layers.1.lin.weight f4 [32, 72]
2.1680405 -1.137921 0.59980357 -0.6843344 -3.147708 0.42039022 0.26747495 -0.09487563
0.25152308 1.698883 0.2938564 -0.40235367 0.8977604 0.90237194 0.26215935 0.22271235
-0.595322 1.0589389 0.59769106 -1.2351232 0.44325474 2.387052 0.6649693 0.008358785
1.0668085 -0.54377687 -1.624723 0.18181461 -0.9688442 0.22110848 -1.3232125 -2.8599868
0.02591861 1.4723501 1.6179051 -0.83926463 -0.01922223 -0.8985474 -1.005833 -0.7980648
1.7462655 -0.91238254 0.83617026 -1.111362 1.6720297 1.2943144 0.37824187 3.202983
0.7366648 0.59485364 -0.2667872 0.6404562 0.3129943 1.424393 -0.7882116 1.3677464
-0.21456903 0.82096964 -0.20429586 0.28834146 2.3301294 0.32825857 -2.333235 0.55055505
0.5369875 1.691855 1.153485 0.15680134 -0.6462523 -0.0534827 0.16020544 0.52297086
0.56383723 0.5447438 1.1516962 0.3147343 -0.23423968 -0.28700832 0.7608594 -0.22054297
-0.29402918 -0.69623977 0.32836205 -0.31591055 0.4036429 0.0012437741 0.05249199 0.5259819
0.8315885 0.94385135 -0.765062 0.1539741 0.94773084 -0.8125252 -0.6425212 -0.3954651
0.06674612 1.450644 -0.33112657 -0.11676473 -0.20102787 0.08925656 -0.55376 -0.35363615
0.35154578 -0.16588682 -1.6320829 -0.43019795 -0.35306016 0.46856785 0.79893154 1.1976249
0.39307427 1.8549312 0.08207058 -0.16994661 0.46062785 0.0016444813 -0.82950294 -0.7948454
0.6208658 0.2255817 0.091689214 -2.877104 -0.33480614 -0.06329931 -0.17402488 -0.3521135
-0.34572977 -3.15991 0.9260421 -0.52116096 -0.46205786 0.46998844 0.03357867 -3.4099035
0.98693657 -0.94636947 -0.8317851 -0.55511874 -0.6388425 0.3214166 -0.3995145 -0.043688584
-1.3526537 -0.546114 -1.7825952 -0.75638324 0.5121257 0.4683128 -1.550229 -1.4716944
-1.1642889 1.1371069 -1.3338627 -0.98344904 -1.6907753 0.28673384 -1.3224238 -1.8710705
-0.89618516 -1.0101756 -0.73568493 -1.2682335 -2.465172 0.8635882 -0.28328404 -0.8126668
-0.8582563 -0.2894317 -1.6140007 -1.3505527 -1.366453 -1.2030293 -1.1995711 -0.08531756
-0.63678145 -1.0079292 0.4631344 -0.8487409 0.29395244 -1.2199676 -1.5386949 -1.7017925
-0.8337772 -0.5024754 -0.9874944 -0.71816367 -1.3175129 -1.0279989 -1.1776004 0.6160223
-0.5161102 -0.148509 -1.2038814 -0.20374838 -1.6044117 -1.4896796 0.0049827727 0.03776796
-0.13818148 0.6095392 -1.5423735 -1.131021 -0.5953992 1.1404747 -0.75949806 -0.45485047
0.30736807 -1.3341931 -1.4643261 -0.82219404 -1.0365309 -1.4002839 -0.9957621 -0.9316441
-0.08058549 0.6396887 0.5503409 -0.368323 0.35884443 -1.2104923 0.18645558 -0.7501624
-0.24386714 -0.122612126 -0.4116637 0.49992245 0.25458363 -0.92657936 -0.26351196 -0.014635358
-0.27689594 0.29636496 0.22032654 -0.58203036 -0.025477782 -0.45821065 0.3630254 0.0470604
-0.1810238 -0.32421842 0.2734947 -0.33732834 -0.18453278 0.31682396 1.0758942 0.4861895
-0.33226773 0.35480264 -0.82721615 -0.023337262 0.083603114 -0.0519876 0.6408324 -0.012950535
00000000: 2dc1 0a40 65a7 91bf ba8c 193f 8a30 2fbf
00000010: 0c74 49c0 633d d73e 7af2 883e 284e c2bd
00000020: a2c7 803e 0075 d93f 5974 963e 4d01 cebe
00000030: a0d3 653f d901 673f c039 863e b50e 643e
00000040: 0667 18bf 4f8b 873f 4802 193f 8418 9ebf
00000050: 49f2 e23e 76c5 1840 6e3b 2a3f 49f3 083c
00000060: 2e8d 883f f634 0bbf ecf6 cfbf 9c2d 3a3e
00000070: 2c06 78bf 436a 623e 075f a9bf 060a 37c0
00000080: 4453 d43c f875 bc3f 8417 cf3f 0cda 56bf
00000090: f077 9dbc 3407 66bf 23bf 80bf fa4d 4cbf
000000a0: a185 df3f e791 69bf 410f 563f 1c41 8ebf
000000b0: 1205 d63f 18ac a53f eba8 c13e acfd 4c40
000000c0: 1096 3c3f 5448 183f 5598 88be f0f4 233f
000000d0: ca40 a03e 8352 b63f 3cc8 49bf 5012 af3f
000000e0: fcb7 5bbe 112b 523f ef32 51be 7ea1 933e
000000f0: d720 1540 8211 a83e b953 15c0 2df1 0c3f
00000100: 0378 093f b48e d83f 65a5 933f 8890 203e
00000110: ca70 25bf ad10 5bbd e50c 243e 6be1 053f
00000120: a357 103f 5474 0b3f c86a 933f db24 a13e
00000130: 87dc 6fbe c1f2 92be aec7 423f 04d6 61be
00000140: fe8a 96be c53c 32bf 121f a83e 07bf a1be
00000150: 48aa ce3e 2206 a33a d701 573d c0a6 063f
00000160: fce2 543f 3ea0 713f 1adb 43bf 63ab 1d3e
00000170: 7d9e 723f a701 50bf 457c 24bf 677a cabe
00000180: 31b2 883d b4ae b93f 6c89 a9be 5922 efbd
00000190: 40da 4dbe 25cc b63d 37c3 0dbf cc0f b5be
000001a0: cffd b33e 3cde 29be 18e8 d0bf e842 dcbe
000001b0: 4dc4 b4be 20e8 ef3e c786 4c3f c64b 993f
000001c0: 0841 c93e 636e ed3f 9f14 a83d 7c06 2ebe
000001d0: 6ad7 eb3e a38b d73a 4e5a 54bf fd7a 4bbf
000001e0: 10f1 1e3f e4fe 663e 8ec7 bb3d 7922 38c0
000001f0: b66b abbe 12a3 81bd 9433 32be 3848 b4be
00000200: 7e03 b1be f73b 4ac0 1811 6d3f ce6a 05bf
00000210: d992 ecbe 53a2 f03e ca89 093d dc3b 5ac0
00000220: e0a7 7c3f 4545 72bf deef 54bf 431c 0ebf
00000230: 2f8b 23bf b790 a43e 2a8d ccbe cdf2 32bd
00000240: c223 adbf 21ce 0bbf 142c e4bf 55a2 41bf
00000250: ab1a 033f b2c6 ef3e e76d c6bf 7b60 bcbf
00000260: 6b07 95bf b88c 913f 03bc aabf 51c3 7bbf
00000270: 536b d8bf c7ce 923e 2f45 a9bf 3d7f efbf
00000280: 646c 65bf 6f4d 81bf d955 3cbf 7a55 a2bf
00000290: 61c5 1dc0 1e14 5d3f 9b0a 91be ee0a 50bf
000002a0: afb6 5bbf 6430 94be 9397 cebf e9de acbf
000002b0: efe7 aebf ddfc 99bf 8c8b 99bf f9ba aebd
000002c0: 1c04 23bf d303 81bf f41f ed3e 1547 59bf
000002d0: ef80 963e e627 9cbf f4f3 c4bf 56d4 d9bf
000002e0: 6c72 55bf 3aa2 00bf 6fcc 7cbf 93d9 37bf
000002f0: 43a4 a8bf 7895 83bf 9cbb 96bf a3b3 1d3f
00000300: cc1f 04bf be12 18be c918 9abf 6aa3 50be
00000310: 5d5d cdbf d2ad bebf 8746 a33b 94b2 1a3d
00000320: 727f 0dbe c30a 1c3f 7f6c c5bf 4cc5 90bf
00000330: 156c 18bf 13fb 913f 776e 42bf 29e2 e8be
00000340: 595f 9d3e d7c6 aabf 0a6f bbbf 4f7b 52bf
00000350: 0bad 84bf 813c b3bf 44ea 7ebf 3a80 6ebf
00000360: 010a a5bd a3c2 233f 24e3 0c3f d594 bcbe
00000370: 75ba b73e 69f1 9abf 36ee 3e3e a50a 40bf
00000380: 4fb8 79be 111c fbbd 96c5 d2be d6f5 ff3e
00000390: c958 823e 4e34 6dbf 0aeb 86be 24c9 6fbc
000003a0: 4ec5 8dbe 26bd 973e 489d 613e f1ff 14bf
000003b0: c8b6 d0bc 969a eabe 77de b93e 68c2 403d
000003c0: 4e5e 39be f5ff a5be 7f07 8c3e 4db6 acbe
000003d0: 29f6 3cbe c036 a23e e7b6 893f d5ed f83e
000003e0: ff1e aabe b1a8 b53e 70c4 53bf c92d bfbc
000003f0: 1c38 ab3d f3f0 54bd 980d 243f 7b2e 54bc

layers.2.att_src f4 [1, 1, 16]
2.567606 1.2334763 3.6538815 0.31606928 4.073966 -0.60819757 1.3271737 2.3613935
1.2329448 1.4173002 1.1561463 1.1326734 -0.5396107 0.61635286 0.60852534 -0.4340756
00000000: a853 2440 8de2 9d3f 32d9 6940 d5d3 a13e
00000010: ee5d 8240 d6b2 1bbf d4e0 a93f 1221 1740
00000020: 23d1 9d3f 186a b53f 9afc 933f 71fb 903f
00000030: ed23 0abf 4dc9 1d3f 51c8 1b3f 283f debe

layers.2.att_dst f4 [1, 1, 16]
0.9510588 0.27422836 0.83661723 -0.8001387 1.2630149 -1.161038 0.42968732 0.879496
0.78983945 0.26220247 -1.0942233 1.346287 -0.24869815 -1.1591566 0.62195903 -0.9900853
00000000: 9778 733f a967 8c3e 8c2c 563f e4d5 4cbf
00000010: 79aa a13f e59c 94bf faff db3e a626 613f
00000020: eb32 4a3f 673f 863e 820f 8cbf 2253 ac3f
00000030: baaa 7ebe 3e5f 94bf b538 1f3f 3b76 7dbf

layers.2.bias f4 [16]
-0.16337794 -0.46284533 -0.20224246 0.2570423 -0.35725856 -0.34900433 0.67904115 -0.41764596
-0.022571957 -0.023482697 -0.23902515 0.0053234864 -0.5478892 -0.32190743 -0.4307012 -0.19052212
00000000: 8c4c 27be 10fa ecbe a618 4fbe 0c9b 833e
00000010: 98ea b6be b2b0 b2be a4d5 2d3f b1d5 d5be
00000020: d3e8 b8bc c95e c0bc 02c3 74be a470 ae3b
00000030: 7742 0cbf 0dd1 a4be de84 dcbe 3b18 43be

layers.2.lin.weight f4 [16, 32]
-2.9498584 -0.2325616 0.25849438 -0.2586654 0.30205688 0.7183545 -0.33539578 0.39292747
-0.80708563 -0.6407893 0.93423975 0.40244702 0.5554259 0.042188715 0.16114618 0.20838338
0.12807512 0.027986443 0.7447144 0.2918484 1.3670206 0.5374159 -0.98436135 -0.33660582
-0.013352064 -0.8715994 0.8824897 0.2370205 0.054559402 0.21410526 0.16288078 -3.0220494
-2.3198266 0.06718442 0.52043134 -0.23272428 0.22573747 0.45063326 -0.2871641 -0.14336367
-0.47867656 -0.40916875 0.6989888 0.38911465 0.5551485 -0.18566109 0.101097025 0.6576724
-0.14251883 -0.6694475 0.81748056 0.08238207 0.6072846 -0.11936901 -0.38901085 0.007417782
-0.07521115 -1.3400574 0.6181717 0.19687936 0.20881014 0.19290793 -0.41181007 -3.2325575
-3.3293562 -0.08818627 0.590377 -0.02601573 -0.09776317 0.8074755 -0.16820145 -0.2913906
-0.734044 -0.6397703 0.28451958 0.45572126 0.58286244 0.12129081 -0.044572644 -0.36403307
0.22754785 0.05539414 0.80749774 -0.20903812 1.1471242 0.22102904 -0.7509254 0.11779744
-0.0461425 -1.2602171 0.025369916 0.3248801 -0.17915879 0.14273119 -0.062676914 -2.97773
1.2426512 -0.28246152 -0.6600983 -0.23094827 0.4795662 0.23279189 0.111520834 0.5221518
0.18292132 0.092872865 -0.7610376 -0.05058801 -0.3157796 -0.44159076 0.14099868 -0.4736735
0.0857496 -0.49812058 -0.01661636 0.11792125 0.4339829 -0.16839853 0.15575546 -0.34420866
0.38589618 0.92680174 0.21053788 0.051625706 -0.26644942 -0.0039769528 -0.17513305 1.1644983
-3.344287 -0.37335834 0.61109775 0.011989543 0.38409215 0.9813654 -0.3436958 0.34088722
-1.0355906 -0.8801904 0.17981201 0.32090408 0.42502376 0.35677904 -0.28988057 -0.4230888
-0.1124924 -0.13773738 0.22302221 0.15175693 1.3532606 0.39305842 -1.2341785 -0.562016
-0.8418147 -0.9281376 -0.2705134 0.65854084 -0.3916578 0.28648844 -0.24635275 -2.931068
0.5220758 -0.7439216 -0.4540066 -0.13545753 0.69814676 0.1889158 -0.010818651 0.52252316
0.075387724 0.041222293 -0.38473275 -0.0086868955 -1.9729991 -0.76107204 -0.4617935 -0.05586172
0.096902266 -0.5748664 -0.53761256 -0.28493664 -0.13624442 0.17213628 -0.35965535 -0.62525487
-0.24257211 0.12459689 0.058491558 -0.80252075 0.45869458 0.6372702 -0.29527473 0.22167118
-1.5153056 0.30327126 -0.17151192 -0.46481258 -0.46631578 0.33410013 -0.1214824 0.1894822
-0.1867586 -0.34331143 1.7929368 -0.023201697 1.6131794 -0.1681981 -0.11342323 0.14175935
-0.16113901 -0.09117703 0.8141073 -0.21012186 -0.555318 0.37549582 -0.21246162 0.0582097
-0.9312549 -1.06736 0.19133377 0.6258311 -0.0027960632 -0.11193179 -0.10291474 -3.0209026
-3.0591905 0.15065937 0.79482144 0.24503353 -0.6047421 0.5817657 -0.5599008 0.13465069
-0.96605855 -1.1591065 -0.031731255 -0.33614314 0.7105877 0.5763633 -0.7631485 0.1003823
0.23811182 -0.25354564 0.41919076 0.017745238 1.4501575 -0.12071029 -1.0699884 -0.73003167
-0.4000448 -1.4137701 0.65165144 0.83844924 -0.2240771 -0.47088474 -0.53478146 -2.8095634
00000000: 7bca 3cc0 a124 6ebe 6059 843e cb6f 84be
00000010: 33a7 9a3e 15e6 373f ffb8 abbe ca2d c93e
00000020: 2a9d 4ebf c40a 24bf 562a 6f3f 890d ce3e
00000030: 6430 0e3f 13ce 2c3d 8103 253e 7462 553e
00000040: 2026 033e d343 e53c 9aa5 3e3f 276d 953e
00000050: 88fa ae3f 1794 093f 1bff 7bbf 9957 acbe
00000060: 9ec2 5abc 2321 5fbf d8ea 613f 80b5 723e
00000070: ae79 5f3d 693e 5b3e 38ca 263e 4269 41c0
00000080: 0a78 14c0 fc97 893d fd3a 053f 464f 6ebe
00000090: b927 673e 67b9 e63e 2c07 93be edcd 12be
000000a0: 1815 f5be 917e d1be eef0 323f 093a c73e
000000b0: 361e 0e3f f11d 3ebe f50b cf3d 385d 283f
000000c0: 75f0 11be e960 2bbf 6846 513f eeb7 a83d
000000d0: 0177 1b3f bd77 f4bd 6e2c c7be de10 f33b
000000e0: 4e08 9abd 0087 abbf 8040 1e3f be9a 493e
000000f0: 53d2 553e a889 453e c5d8 d2be 39e2 4ec0
00000100: 2c14 55c0 019b b4bd f222 173f f11e d5bc
00000110: 0f38 c8bd b7b6 4e3f 003d 2cbe 2631 95be
00000120: 4fea 3bbf fdc7 23bf 8dac 913e 4c54 e93e
00000130: 7936 153f 5167 f83d ce91 36bd 8b62 babe
00000140: 4e02 693e f7e4 623d 2cb8 4e3f 170e 56be
00000150: f7d4 923f 7055 623e a63c 40bf c93f f13d
00000160: ebff 3cbd cb4e a1bf 92d4 cf3c af56 a63e
00000170: 6775 37be 2028 123e c15c 80bd 2193 3ec0
00000180: 320f 9f3f cc9e 90be 34fc 28bf b47d 6cbe
00000190: b389 f53e ff60 6e3e 0965 e43d beab 053f
000001a0: ba4f 3b3e 2134 be3d 5cd3 42bf 6035 4fbd
000001b0: ddad a1be 2f18 e2be f561 103e 5585 f2be
000001c0: 7c9d af3d a909 ffbe 081f 88bc b280 f13d
000001d0: 0233 de3e aa70 2cbe 5c7e 1f3e 1e3c b0be
000001e0: 2f94 c53e e142 6d3f 3e97 573e 7a75 533d
000001f0: 0f6c 88be 1951 82bb 1456 33be 480e 953f
00000200: cc08 56c0 d328 bfbe e770 1c3f ca6f 443c
00000210: baa7 c43e c33a 7b3f e5f8 afbe c588 ae3e
00000220: 3c8e 84bf 2854 61bf a420 383e 8a4d a43e
00000230: b79c d93e beab b63e 3a6b 94be 189f d8be
00000240: 6a62 e6bd 070b 0dbe ef5f 643e 2b66 1b3e
00000250: a537 ad3f f43e c93e 90f9 9dbf 48e0 0fbf
00000260: 2b81 57bf 6d9a 6dbf bb80 8abe 2296 283f
00000270: 5f87 c8be 9dae 923e e543 7cbe 9e96 3bc0
00000280: c2a6 053f a571 3ebf 8e73 e8be 61b5 0abe
00000290: bfb9 323f 2573 413e b640 31bc 14c4 053f
000002a0: e164 9a3d b5d8 283d b1fb c4be 7b53 0ebc
000002b0: 3c8b fcbf 9ed5 42bf 3370 ecbe 42cf 64bd
000002c0: b274 c63d 722a 13bf faa0 09bf 37e3 91be
000002d0: a883 0bbe 7e44 303e bf24 b8be b410 20bf
000002e0: d364 78be a72c ff3d d894 6f3d 0072 4dbf
000002f0: 04da ea3e 2424 233f 402e 97be c5fd 623e
00000300: 89f5 c1bf 5f46 9b3e d2a0 2fbe eafb edbe
00000310: f1c0 eebe 2c0f ab3e c4cb f8bd 9f07 423e
00000320: a53d 3fbe 84c6 afbe f47e e53f 7c11 bebc
00000330: aa7c ce3f 1f3c 2cbe 704a e8bd 5d29 113e
00000340: a001 25be 06bb babd 5669 503f 2f2a 57be
00000350: 5229 0ebf fd40 c03e 8a8f 59be 4b6d 6e3d
00000360: b966 6ebf 419f 88bf 00ed 433e 7836 203f
00000370: 283e 37bb 7f3c e5bd f7c4 d2bd 7856 41c0
00000380: c7c9 43c0 7346 1a3e 6b79 4b3f 12ea 7a3e
00000390: 61d0 1abf 99ee 143f a955 0fbf dfe1 093e
000003a0: 9d4f 77bf 9a5d 94bf a2f8 01bd f41a acbe
000003b0: 13e9 353f 8c8c 133f b35d 43bf 3c95 cd3d
000003c0: 96d3 733e bcd0 81be 2ca0 d63e 765e 913c
000003d0: c39e b93f f536 f7bd 61f5 88bf 5be3 3abf
000003e0: acd2 ccbe 6bf6 b4bf a1d2 263f 9ca4 563f
000003f0: 7874 65be ce17 f1be 70e7 08bf e3cf 33c0

predictor.att_src f4 [1, 1, 2]
4.014518 -3.8963416
00000000: ee76 8040 a95d 79c0

predictor.att_dst f4 [1, 1, 2]
-0.2193097 3.2147956
00000000: b992 60be 36bf 4d40

predictor.bias f4 [2]
-0.14196557 0.14196591
00000000: 6c5f 11be 835f 113e

predictor.lin.weight f4 [2, 120]
0.70798534 0.44894803 2.2357433 1.2981391 -1.1249552 -1.7196071 1.6880838 0.9227754
0.7016612 -3.863308 1.9012864 1.8078353 3.2902977 1.2569609 0.8160417 2.7388039
0.6064229 -0.67806447 0.6841283 0.9338857 4.220163 -0.6829554 0.34678 0.17654471
1.2076424 -2.426636 1.4977654 0.46569458 0.5710086 0.47159472 0.7365844 -0.5522973
2.4931593 2.0086355 -1.1934814 0.9584479 0.6375235 4.085192 2.8710384 3.089102
2.4207296 3.7449534 0.95159334 0.75851756 2.1386719 1.3547614 0.2943943 -0.070535876
2.2355697 1.1544353 0.8836144 -0.7727928 1.76998 0.34430724 0.28082156 -0.5908337
0.05855633 -1.4821495 0.009159699 0.82050025 1.1722516 -1.3772656 1.2006491 -0.7307554
2.0626385 -0.44296798 0.47300237 1.000343 1.0910486 1.3583759 0.2582806 2.059362
0.7465798 -0.593211 -1.2188395 -0.15840644 0.2062586 0.08818151 0.116631605 0.15954171
-0.75602996 0.99947715 -0.64158726 0.032451957 -0.49522015 -0.54749715 0.1067182 0.031301856
0.038046032 -0.42013896 0.11185275 0.13433596 -0.27569064 0.15586722 -0.405969 0.29646385
-0.09020064 0.35800272 -0.018802037 -0.78375596 -0.027028767 0.030855618 -0.6488951 0.6711201
-0.24349178 -0.35906547 0.009219181 -0.24846019 -0.3779519 -0.10185314 0.30608255 0.078889124
0.01660676 -0.10128107 -0.37733218 0.08421497 -0.031281203 0.11801715 0.014542833 0.10605501
-0.6976635 -0.10484309 -2.3363297 -1.2371998 1.2353847 1.9358288 -1.2777327 -0.86946553
-0.53317404 4.022814 -2.0213904 -1.5090437 -3.4878204 -1.4862151 -0.82544625 -3.0441086
-0.34984145 0.62775093 -0.4971367 -0.7449504 -4.165099 0.83366716 -0.25210837 -0.24291526
-1.5879424 2.420675 -1.2487152 -0.6973982 -0.34772348 -0.1609971 -0.4132979 0.38757697
-2.665745 -2.0373905 1.6492214 -0.96292156 -0.4636041 -4.213277 -2.5119507 -2.9217057
-2.471906 -3.74873 -0.8052894 -0.45330402 -2.4035106 -1.284743 -0.20360453 -0.11663247
-2.2178211 -1.1423162 -0.9369468 1.1723675 -1.5427444 -0.330218 -0.5646953 0.57580745
0.012172997 2.0786157 -0.008449821 -0.5638437 -0.9946348 1.5800853 -1.3210016 1.4167894
-1.7245169 0.58757454 -0.56506854 -0.75434405 -0.95954585 -1.4511017 -0.19799651 -1.7562544
-0.23963335 0.44104004 1.2982578 0.15139778 -0.23049581 -0.17016235 0.011499083 -0.13148397
0.8437787 -0.55097514 0.42622408 -0.16525818 0.26142466 0.5264532 -0.30044886 -0.08645144
-0.18043865 0.2097765 0.30632517 -0.10208968 0.28681502 -0.41643286 0.21347466 0.030347615
-0.18319756 -0.44660857 0.036360394 0.8864205 -0.04115769 -0.22187127 0.51601166 -0.673684
0.089126624 0.34209564 0.14464955 0.719229 0.22536805 0.10700645 -0.39236188 0.122428805
0.047634717 -0.077879496 0.32672578 1.5045801e-05 -0.3214601 0.005697549 0.32506612 0.36493894
00000000: 873e 353f 84dc e53e 6b16 0f40 6c29 a63f
00000010: 88fe 8fbf 161c dcbf 2113 d83f 023b 6c3f
00000020: 12a0 333f 7040 77c0 5a5d f33f 2667 e73f
00000030: 3d94 5240 18e4 a03f 1ce8 503f 9048 2f40
00000040: 883e 1b3f a295 2dbf 0823 2f3f 2213 6f3f
00000050: 930b 8740 2ad6 2ebf 268d b13e 23c8 343e
00000060: 0794 9a3f 014e 1bc0 c7b6 bf3f 856f ee3e
00000070: 9f2d 123f dd74 f13e cc90 3c3f 5b63 0dbf
00000080: ec8f 1f40 7c8d 0040 00c4 98bf d75c 753f
00000090: bd34 233f e5b9 8240 18bf 3740 d9b3 4540
000000a0: 3ced 1a40 51ad 6f40 9f9b 733f 352e 423f
000000b0: 00e0 0840 d268 ad3f daba 963e 1d75 90bd
000000c0: 9313 0f40 89c4 933f 8e34 623f c0d5 45bf
000000d0: b48e e23f 0a49 b03e d8c7 8f3e e140 17bf
000000e0: c3d8 6f3d 13b7 bdbf 9012 163c 4e0c 523f
000000f0: 570c 963f 3d4a b0bf dfae 993f c912 3bbf
00000100: 4502 0440 b3cc e2be 5e2d f23e 3d0b 803f
00000110: 7ba7 8b3f 43df ad3f 5b3d 843e 96cc 0340
00000120: db1f 3f3f addc 17bf ef02 9cbf 4c35 22be
00000130: 7435 533e 8298 b43d 8ddc ee3d e75e 233e
00000140: 2e8b 41bf bcdd 7f3f 103f 24bf 58ec 043d
00000150: 7f8d fdbe c628 0cbf 128f da3d 6036 003d
00000160: 28d6 1b3d 741c d7be 0e13 e53d 5e8f 093e
00000170: 5327 8dbe a89b 1f3e 2bdb cfbe 1cca 973e
00000180: 1dbb b8bd 224c b73e bb06 9abc 3ba4 48bf
00000190: 6f6b ddbc ecc4 fc3c fd1d 26bf 87ce 2b3f
000001a0: e955 79be 6ed7 b7be 0c0c 173c 596c 7ebe
000001b0: e982 c1be 6198 d0bd dab6 9c3e 9f90 a13d
000001c0: e60a 883c 736c cfbd af31 c1be e678 ac3d
000001d0: b820 00bd fab2 f13d 1045 6e3c 5e33 d93d
000001e0: 139a 32bf f9b7 d6bd 6d86 15c0 905c 9ebf
000001f0: 1621 9e3f 3dc9 f73f bf8c a3bf 4b95 5ebf
00000200: 187e 08bf e4ba 8040 765e 01c0 5828 c1bf
00000210: 7338 5fc0 4c3c bebf 7250 53bf add2 42c0
00000220: 6b1e b3be 49b4 203f b488 febe 12b5 3ebf
00000230: 7e48 85c0 366b 553f 5914 81be c7be 78be
00000240: b241 cbbf 57ec 1a40 e6d5 9fbf b088 32bf
00000250: d008 b2be 6cdc 24be c89b d3be 7d70 c63e
00000260: 919b 2ac0 9b64 02c0 b019 d33f 0782 76bf
00000270: 845d edbe 2ad3 86c0 cdc3 20c0 3afd 3ac0
00000280: b533 1ec0 31eb 6fc0 7227 4ebf 7717 e8be
00000290: 1ed3 19c0 7572 a4bf b57d 50be 01dd eebd
000002a0: c8f0 0dc0 6b37 92bf bfdb 6fbf 2310 963f
000002b0: a678 c5bf 5512 a9be df8f 10bf 1e68 133f
000002c0: 4071 473c 0a08 0540 1e71 0abc 1058 10bf
000002d0: 63a0 7ebf 3c40 ca3f 9516 a9bf 5b59 b53f
000002e0: f8bc dcbf 496b 163f 55a8 10bf b11c 41bf
000002f0: cca4 75bf b3bd b9bf 99bf 4abe f2cc e0bf
00000300: 7262 75be 00d0 e13e 502d a63f 0508 1b3e
00000310: 1807 6cbe 0a3f 2ebe a666 3c3c bca3 06be
00000320: e201 583f b50c 0dbf 0b3a da3e 7139 29be
00000330: 74d9 853e a3c5 063f 6fd4 99be 740d b1bd
00000340: e9c4 38be a7cf 563e a7d6 9c3e 6514 d1bd
00000350: 6bd9 923e b036 d5be 1a99 5a3e 909b f83c
00000360: 2498 3bbe e1a9 e4be a3ee 143d 74ec 623f
00000370: f794 28bd 3932 63be 5719 043f 8e76 2cbf
00000380: 0588 b63d 2927 af3e 031f 143e 641f 383f
00000390: e2c6 663e 3326 db3d a8e3 c8be f4bb fa3d
000003a0: 9f1c 433d 497f 9fbd 9a48 a73e 396d 7c37
000003b0: 6b96 a4be 81b2 ba3b 116f a63e 47d9 ba3e
